{"class_name": "Sequential", "config": {"name": "dffnetv2b0", "layers": [{"class_name": "InputLayer", "config": {"batch_input_shape": [null, 256, 256, 3], "dtype": "float32", "sparse": false, "ragged": false, "name": "efficientnetv2-b0_input"}}, {"class_name": "Functional", "config": {"name": "efficientnetv2-b0", "layers": [{"class_name": "InputLayer", "config": {"batch_input_shape": [null, 256, 256, 3], "dtype": "float32", "sparse": false, "ragged": false, "name": "input_5"}, "name": "input_5", "inbound_nodes": []}, {"class_name": "Rescaling", "config": {"name": "rescaling_4", "trainable": true, "dtype": "float32", "scale": 0.00392156862745098, "offset": 0.0}, "name": "rescaling_4", "inbound_nodes": [[["input_5", 0, 0, {}]]]}, {"class_name": "Normalization", "config": {"name": "normalization", "trainable": true, "dtype": "float32", "axis": [3], "mean": [0.485, 0.456, 0.406], "variance": [0.052441, 0.050176000000000005, 0.050625]}, "name": "normalization", "inbound_nodes": [[["rescaling_4", 0, 0, {}]]]}, {"class_name": "Conv2D", "config": {"name": "stem_conv", "trainable": true, "dtype": "float32", "filters": 32, "kernel_size": [3, 3], "strides": [2, 2], "padding": "same", "data_format": "channels_last", "dilation_rate": [1, 1], "groups": 1, "activation": "linear", "use_bias": false, "kernel_initializer": {"class_name": "VarianceScaling", "config": {"scale": 2.0, "mode": "fan_out", "distribution": "truncated_normal", "seed": null}}, "bias_initializer": {"class_name": "Zeros", "config": {}}, "kernel_regularizer": null, "bias_regularizer": null, "activity_regularizer": null, "kernel_constraint": null, "bias_constraint": null}, "name": "stem_conv", "inbound_nodes": [[["normalization", 0, 0, {}]]]}, {"class_name": "BatchNormalization", "config": {"name": "stem_bn", "trainable": true, "dtype": "float32", "axis": [3], "momentum": 0.9, "epsilon": 0.001, "center": true, "scale": true, "beta_initializer": {"class_name": "Zeros", "config": {}}, "gamma_initializer": {"class_name": "Ones", "config": {}}, "moving_mean_initializer": {"class_name": "Zeros", "config": {}}, "moving_variance_initializer": {"class_name": "Ones", "config": {}}, "beta_regularizer": null, "gamma_regularizer": null, "beta_constraint": null, "gamma_constraint": null}, "name": "stem_bn", "inbound_nodes": [[["stem_conv", 0, 0, {}]]]}, {"class_name": "Activation", "config": {"name": "stem_activation", "trainable": true, "dtype": "float32", "activation": "swish"}, "name": "stem_activation", "inbound_nodes": [[["stem_bn", 0, 0, {}]]]}, {"class_name": "Conv2D", "config": {"name": "block1a_project_conv", "trainable": true, "dtype": "float32", "filters": 16, "kernel_size": [3, 3], "strides": [1, 1], "padding": "same", "data_format": "channels_last", "dilation_rate": [1, 1], "groups": 1, "activation": "linear", "use_bias": false, "kernel_initializer": {"class_name": "VarianceScaling", "config": {"scale": 2.0, "mode": "fan_out", "distribution": "truncated_normal", "seed": null}}, "bias_initializer": {"class_name": "Zeros", "config": {}}, "kernel_regularizer": null, "bias_regularizer": null, "activity_regularizer": null, "kernel_constraint": null, "bias_constraint": null}, "name": "block1a_project_conv", "inbound_nodes": [[["stem_activation", 0, 0, {}]]]}, {"class_name": "BatchNormalization", "config": {"name": "block1a_project_bn", "trainable": true, "dtype": "float32", "axis": [3], "momentum": 0.9, "epsilon": 0.001, "center": true, "scale": true, "beta_initializer": {"class_name": "Zeros", "config": {}}, "gamma_initializer": {"class_name": "Ones", "config": {}}, "moving_mean_initializer": {"class_name": "Zeros", "config": {}}, "moving_variance_initializer": {"class_name": "Ones", "config": {}}, "beta_regularizer": null, "gamma_regularizer": null, "beta_constraint": null, "gamma_constraint": null}, "name": "block1a_project_bn", "inbound_nodes": [[["block1a_project_conv", 0, 0, {}]]]}, {"class_name": "Activation", "config": {"name": "block1a_project_activation", "trainable": true, "dtype": "float32", "activation": "swish"}, "name": "block1a_project_activation", "inbound_nodes": [[["block1a_project_bn", 0, 0, {}]]]}, {"class_name": "Conv2D", "config": {"name": "block2a_expand_conv", "trainable": true, "dtype": "float32", "filters": 64, "kernel_size": [3, 3], "strides": [2, 2], "padding": "same", "data_format": "channels_last", "dilation_rate": [1, 1], "groups": 1, "activation": "linear", "use_bias": false, "kernel_initializer": {"class_name": "VarianceScaling", "config": {"scale": 2.0, "mode": "fan_out", "distribution": "truncated_normal", "seed": null}}, "bias_initializer": {"class_name": "Zeros", "config": {}}, "kernel_regularizer": null, "bias_regularizer": null, "activity_regularizer": null, "kernel_constraint": null, "bias_constraint": null}, "name": "block2a_expand_conv", "inbound_nodes": [[["block1a_project_activation", 0, 0, {}]]]}, {"class_name": "BatchNormalization", "config": {"name": "block2a_expand_bn", "trainable": true, "dtype": "float32", "axis": [3], "momentum": 0.9, "epsilon": 0.001, "center": true, "scale": true, "beta_initializer": {"class_name": "Zeros", "config": {}}, "gamma_initializer": {"class_name": "Ones", "config": {}}, "moving_mean_initializer": {"class_name": "Zeros", "config": {}}, "moving_variance_initializer": {"class_name": "Ones", "config": {}}, "beta_regularizer": null, "gamma_regularizer": null, "beta_constraint": null, "gamma_constraint": null}, "name": "block2a_expand_bn", "inbound_nodes": [[["block2a_expand_conv", 0, 0, {}]]]}, {"class_name": "Activation", "config": {"name": "block2a_expand_activation", "trainable": true, "dtype": "float32", "activation": "swish"}, "name": "block2a_expand_activation", "inbound_nodes": [[["block2a_expand_bn", 0, 0, {}]]]}, {"class_name": "Conv2D", "config": {"name": "block2a_project_conv", "trainable": true, "dtype": "float32", "filters": 32, "kernel_size": [1, 1], "strides": [1, 1], "padding": "same", "data_format": "channels_last", "dilation_rate": [1, 1], "groups": 1, "activation": "linear", "use_bias": false, "kernel_initializer": {"class_name": "VarianceScaling", "config": {"scale": 2.0, "mode": "fan_out", "distribution": "truncated_normal", "seed": null}}, "bias_initializer": {"class_name": "Zeros", "config": {}}, "kernel_regularizer": null, "bias_regularizer": null, "activity_regularizer": null, "kernel_constraint": null, "bias_constraint": null}, "name": "block2a_project_conv", "inbound_nodes": [[["block2a_expand_activation", 0, 0, {}]]]}, {"class_name": "BatchNormalization", "config": {"name": "block2a_project_bn", "trainable": true, "dtype": "float32", "axis": [3], "momentum": 0.9, "epsilon": 0.001, "center": true, "scale": true, "beta_initializer": {"class_name": "Zeros", "config": {}}, "gamma_initializer": {"class_name": "Ones", "config": {}}, "moving_mean_initializer": {"class_name": "Zeros", "config": {}}, "moving_variance_initializer": {"class_name": "Ones", "config": {}}, "beta_regularizer": null, "gamma_regularizer": null, "beta_constraint": null, "gamma_constraint": null}, "name": "block2a_project_bn", "inbound_nodes": [[["block2a_project_conv", 0, 0, {}]]]}, {"class_name": "Conv2D", "config": {"name": "block2b_expand_conv", "trainable": true, "dtype": "float32", "filters": 128, "kernel_size": [3, 3], "strides": [1, 1], "padding": "same", "data_format": "channels_last", "dilation_rate": [1, 1], "groups": 1, "activation": "linear", "use_bias": false, "kernel_initializer": {"class_name": "VarianceScaling", "config": {"scale": 2.0, "mode": "fan_out", "distribution": "truncated_normal", "seed": null}}, "bias_initializer": {"class_name": "Zeros", "config": {}}, "kernel_regularizer": null, "bias_regularizer": null, "activity_regularizer": null, "kernel_constraint": null, "bias_constraint": null}, "name": "block2b_expand_conv", "inbound_nodes": [[["block2a_project_bn", 0, 0, {}]]]}, {"class_name": "BatchNormalization", "config": {"name": "block2b_expand_bn", "trainable": true, "dtype": "float32", "axis": [3], "momentum": 0.9, "epsilon": 0.001, "center": true, "scale": true, "beta_initializer": {"class_name": "Zeros", "config": {}}, "gamma_initializer": {"class_name": "Ones", "config": {}}, "moving_mean_initializer": {"class_name": "Zeros", "config": {}}, "moving_variance_initializer": {"class_name": "Ones", "config": {}}, "beta_regularizer": null, "gamma_regularizer": null, "beta_constraint": null, "gamma_constraint": null}, "name": "block2b_expand_bn", "inbound_nodes": [[["block2b_expand_conv", 0, 0, {}]]]}, {"class_name": "Activation", "config": {"name": "block2b_expand_activation", "trainable": true, "dtype": "float32", "activation": "swish"}, "name": "block2b_expand_activation", "inbound_nodes": [[["block2b_expand_bn", 0, 0, {}]]]}, {"class_name": "Conv2D", "config": {"name": "block2b_project_conv", "trainable": true, "dtype": "float32", "filters": 32, "kernel_size": [1, 1], "strides": [1, 1], "padding": "same", "data_format": "channels_last", "dilation_rate": [1, 1], "groups": 1, "activation": "linear", "use_bias": false, "kernel_initializer": {"class_name": "VarianceScaling", "config": {"scale": 2.0, "mode": "fan_out", "distribution": "truncated_normal", "seed": null}}, "bias_initializer": {"class_name": "Zeros", "config": {}}, "kernel_regularizer": null, "bias_regularizer": null, "activity_regularizer": null, "kernel_constraint": null, "bias_constraint": null}, "name": "block2b_project_conv", "inbound_nodes": [[["block2b_expand_activation", 0, 0, {}]]]}, {"class_name": "BatchNormalization", "config": {"name": "block2b_project_bn", "trainable": true, "dtype": "float32", "axis": [3], "momentum": 0.9, "epsilon": 0.001, "center": true, "scale": true, "beta_initializer": {"class_name": "Zeros", "config": {}}, "gamma_initializer": {"class_name": "Ones", "config": {}}, "moving_mean_initializer": {"class_name": "Zeros", "config": {}}, "moving_variance_initializer": {"class_name": "Ones", "config": {}}, "beta_regularizer": null, "gamma_regularizer": null, "beta_constraint": null, "gamma_constraint": null}, "name": "block2b_project_bn", "inbound_nodes": [[["block2b_project_conv", 0, 0, {}]]]}, {"class_name": "Add", "config": {"name": "block2b_add", "trainable": true, "dtype": "float32"}, "name": "block2b_add", "inbound_nodes": [[["block2b_project_bn", 0, 0, {}], ["block2a_project_bn", 0, 0, {}]]]}, {"class_name": "Conv2D", "config": {"name": "block3a_expand_conv", "trainable": true, "dtype": "float32", "filters": 128, "kernel_size": [3, 3], "strides": [2, 2], "padding": "same", "data_format": "channels_last", "dilation_rate": [1, 1], "groups": 1, "activation": "linear", "use_bias": false, "kernel_initializer": {"class_name": "VarianceScaling", "config": {"scale": 2.0, "mode": "fan_out", "distribution": "truncated_normal", "seed": null}}, "bias_initializer": {"class_name": "Zeros", "config": {}}, "kernel_regularizer": null, "bias_regularizer": null, "activity_regularizer": null, "kernel_constraint": null, "bias_constraint": null}, "name": "block3a_expand_conv", "inbound_nodes": [[["block2b_add", 0, 0, {}]]]}, {"class_name": "BatchNormalization", "config": {"name": "block3a_expand_bn", "trainable": true, "dtype": "float32", "axis": [3], "momentum": 0.9, "epsilon": 0.001, "center": true, "scale": true, "beta_initializer": {"class_name": "Zeros", "config": {}}, "gamma_initializer": {"class_name": "Ones", "config": {}}, "moving_mean_initializer": {"class_name": "Zeros", "config": {}}, "moving_variance_initializer": {"class_name": "Ones", "config": {}}, "beta_regularizer": null, "gamma_regularizer": null, "beta_constraint": null, "gamma_constraint": null}, "name": "block3a_expand_bn", "inbound_nodes": [[["block3a_expand_conv", 0, 0, {}]]]}, {"class_name": "Activation", "config": {"name": "block3a_expand_activation", "trainable": true, "dtype": "float32", "activation": "swish"}, "name": "block3a_expand_activation", "inbound_nodes": [[["block3a_expand_bn", 0, 0, {}]]]}, {"class_name": "Conv2D", "config": {"name": "block3a_project_conv", "trainable": true, "dtype": "float32", "filters": 48, "kernel_size": [1, 1], "strides": [1, 1], "padding": "same", "data_format": "channels_last", "dilation_rate": [1, 1], "groups": 1, "activation": "linear", "use_bias": false, "kernel_initializer": {"class_name": "VarianceScaling", "config": {"scale": 2.0, "mode": "fan_out", "distribution": "truncated_normal", "seed": null}}, "bias_initializer": {"class_name": "Zeros", "config": {}}, "kernel_regularizer": null, "bias_regularizer": null, "activity_regularizer": null, "kernel_constraint": null, "bias_constraint": null}, "name": "block3a_project_conv", "inbound_nodes": [[["block3a_expand_activation", 0, 0, {}]]]}, {"class_name": "BatchNormalization", "config": {"name": "block3a_project_bn", "trainable": true, "dtype": "float32", "axis": [3], "momentum": 0.9, "epsilon": 0.001, "center": true, "scale": true, "beta_initializer": {"class_name": "Zeros", "config": {}}, "gamma_initializer": {"class_name": "Ones", "config": {}}, "moving_mean_initializer": {"class_name": "Zeros", "config": {}}, "moving_variance_initializer": {"class_name": "Ones", "config": {}}, "beta_regularizer": null, "gamma_regularizer": null, "beta_constraint": null, "gamma_constraint": null}, "name": "block3a_project_bn", "inbound_nodes": [[["block3a_project_conv", 0, 0, {}]]]}, {"class_name": "Conv2D", "config": {"name": "block3b_expand_conv", "trainable": true, "dtype": "float32", "filters": 192, "kernel_size": [3, 3], "strides": [1, 1], "padding": "same", "data_format": "channels_last", "dilation_rate": [1, 1], "groups": 1, "activation": "linear", "use_bias": false, "kernel_initializer": {"class_name": "VarianceScaling", "config": {"scale": 2.0, "mode": "fan_out", "distribution": "truncated_normal", "seed": null}}, "bias_initializer": {"class_name": "Zeros", "config": {}}, "kernel_regularizer": null, "bias_regularizer": null, "activity_regularizer": null, "kernel_constraint": null, "bias_constraint": null}, "name": "block3b_expand_conv", "inbound_nodes": [[["block3a_project_bn", 0, 0, {}]]]}, {"class_name": "BatchNormalization", "config": {"name": "block3b_expand_bn", "trainable": true, "dtype": "float32", "axis": [3], "momentum": 0.9, "epsilon": 0.001, "center": true, "scale": true, "beta_initializer": {"class_name": "Zeros", "config": {}}, "gamma_initializer": {"class_name": "Ones", "config": {}}, "moving_mean_initializer": {"class_name": "Zeros", "config": {}}, "moving_variance_initializer": {"class_name": "Ones", "config": {}}, "beta_regularizer": null, "gamma_regularizer": null, "beta_constraint": null, "gamma_constraint": null}, "name": "block3b_expand_bn", "inbound_nodes": [[["block3b_expand_conv", 0, 0, {}]]]}, {"class_name": "Activation", "config": {"name": "block3b_expand_activation", "trainable": true, "dtype": "float32", "activation": "swish"}, "name": "block3b_expand_activation", "inbound_nodes": [[["block3b_expand_bn", 0, 0, {}]]]}, {"class_name": "Conv2D", "config": {"name": "block3b_project_conv", "trainable": true, "dtype": "float32", "filters": 48, "kernel_size": [1, 1], "strides": [1, 1], "padding": "same", "data_format": "channels_last", "dilation_rate": [1, 1], "groups": 1, "activation": "linear", "use_bias": false, "kernel_initializer": {"class_name": "VarianceScaling", "config": {"scale": 2.0, "mode": "fan_out", "distribution": "truncated_normal", "seed": null}}, "bias_initializer": {"class_name": "Zeros", "config": {}}, "kernel_regularizer": null, "bias_regularizer": null, "activity_regularizer": null, "kernel_constraint": null, "bias_constraint": null}, "name": "block3b_project_conv", "inbound_nodes": [[["block3b_expand_activation", 0, 0, {}]]]}, {"class_name": "BatchNormalization", "config": {"name": "block3b_project_bn", "trainable": true, "dtype": "float32", "axis": [3], "momentum": 0.9, "epsilon": 0.001, "center": true, "scale": true, "beta_initializer": {"class_name": "Zeros", "config": {}}, "gamma_initializer": {"class_name": "Ones", "config": {}}, "moving_mean_initializer": {"class_name": "Zeros", "config": {}}, "moving_variance_initializer": {"class_name": "Ones", "config": {}}, "beta_regularizer": null, "gamma_regularizer": null, "beta_constraint": null, "gamma_constraint": null}, "name": "block3b_project_bn", "inbound_nodes": [[["block3b_project_conv", 0, 0, {}]]]}, {"class_name": "Add", "config": {"name": "block3b_add", "trainable": true, "dtype": "float32"}, "name": "block3b_add", "inbound_nodes": [[["block3b_project_bn", 0, 0, {}], ["block3a_project_bn", 0, 0, {}]]]}, {"class_name": "Conv2D", "config": {"name": "block4a_expand_conv", "trainable": true, "dtype": "float32", "filters": 192, "kernel_size": [1, 1], "strides": [1, 1], "padding": "same", "data_format": "channels_last", "dilation_rate": [1, 1], "groups": 1, "activation": "linear", "use_bias": false, "kernel_initializer": {"class_name": "VarianceScaling", "config": {"scale": 2.0, "mode": "fan_out", "distribution": "truncated_normal", "seed": null}}, "bias_initializer": {"class_name": "Zeros", "config": {}}, "kernel_regularizer": null, "bias_regularizer": null, "activity_regularizer": null, "kernel_constraint": null, "bias_constraint": null}, "name": "block4a_expand_conv", "inbound_nodes": [[["block3b_add", 0, 0, {}]]]}, {"class_name": "BatchNormalization", "config": {"name": "block4a_expand_bn", "trainable": true, "dtype": "float32", "axis": [3], "momentum": 0.9, "epsilon": 0.001, "center": true, "scale": true, "beta_initializer": {"class_name": "Zeros", "config": {}}, "gamma_initializer": {"class_name": "Ones", "config": {}}, "moving_mean_initializer": {"class_name": "Zeros", "config": {}}, "moving_variance_initializer": {"class_name": "Ones", "config": {}}, "beta_regularizer": null, "gamma_regularizer": null, "beta_constraint": null, "gamma_constraint": null}, "name": "block4a_expand_bn", "inbound_nodes": [[["block4a_expand_conv", 0, 0, {}]]]}, {"class_name": "Activation", "config": {"name": "block4a_expand_activation", "trainable": true, "dtype": "float32", "activation": "swish"}, "name": "block4a_expand_activation", "inbound_nodes": [[["block4a_expand_bn", 0, 0, {}]]]}, {"class_name": "DepthwiseConv2D", "config": {"name": "block4a_dwconv2", "trainable": true, "dtype": "float32", "kernel_size": [3, 3], "strides": [2, 2], "padding": "same", "data_format": "channels_last", "dilation_rate": [1, 1], "groups": 1, "activation": "linear", "use_bias": false, "bias_initializer": {"class_name": "Zeros", "config": {}}, "bias_regularizer": null, "activity_regularizer": null, "bias_constraint": null, "depth_multiplier": 1, "depthwise_initializer": {"class_name": "VarianceScaling", "config": {"scale": 2.0, "mode": "fan_out", "distribution": "truncated_normal", "seed": null}}, "depthwise_regularizer": null, "depthwise_constraint": null}, "name": "block4a_dwconv2", "inbound_nodes": [[["block4a_expand_activation", 0, 0, {}]]]}, {"class_name": "BatchNormalization", "config": {"name": "block4a_bn", "trainable": true, "dtype": "float32", "axis": [3], "momentum": 0.9, "epsilon": 0.001, "center": true, "scale": true, "beta_initializer": {"class_name": "Zeros", "config": {}}, "gamma_initializer": {"class_name": "Ones", "config": {}}, "moving_mean_initializer": {"class_name": "Zeros", "config": {}}, "moving_variance_initializer": {"class_name": "Ones", "config": {}}, "beta_regularizer": null, "gamma_regularizer": null, "beta_constraint": null, "gamma_constraint": null}, "name": "block4a_bn", "inbound_nodes": [[["block4a_dwconv2", 0, 0, {}]]]}, {"class_name": "Activation", "config": {"name": "block4a_activation", "trainable": true, "dtype": "float32", "activation": "swish"}, "name": "block4a_activation", "inbound_nodes": [[["block4a_bn", 0, 0, {}]]]}, {"class_name": "GlobalAveragePooling2D", "config": {"name": "block4a_se_squeeze", "trainable": true, "dtype": "float32", "data_format": "channels_last", "keepdims": false}, "name": "block4a_se_squeeze", "inbound_nodes": [[["block4a_activation", 0, 0, {}]]]}, {"class_name": "Reshape", "config": {"name": "block4a_se_reshape", "trainable": true, "dtype": "float32", "target_shape": [1, 1, 192]}, "name": "block4a_se_reshape", "inbound_nodes": [[["block4a_se_squeeze", 0, 0, {}]]]}, {"class_name": "Conv2D", "config": {"name": "block4a_se_reduce", "trainable": true, "dtype": "float32", "filters": 12, "kernel_size": [1, 1], "strides": [1, 1], "padding": "same", "data_format": "channels_last", "dilation_rate": [1, 1], "groups": 1, "activation": "swish", "use_bias": true, "kernel_initializer": {"class_name": "VarianceScaling", "config": {"scale": 2.0, "mode": "fan_out", "distribution": "truncated_normal", "seed": null}}, "bias_initializer": {"class_name": "Zeros", "config": {}}, "kernel_regularizer": null, "bias_regularizer": null, "activity_regularizer": null, "kernel_constraint": null, "bias_constraint": null}, "name": "block4a_se_reduce", "inbound_nodes": [[["block4a_se_reshape", 0, 0, {}]]]}, {"class_name": "Conv2D", "config": {"name": "block4a_se_expand", "trainable": true, "dtype": "float32", "filters": 192, "kernel_size": [1, 1], "strides": [1, 1], "padding": "same", "data_format": "channels_last", "dilation_rate": [1, 1], "groups": 1, "activation": "sigmoid", "use_bias": true, "kernel_initializer": {"class_name": "VarianceScaling", "config": {"scale": 2.0, "mode": "fan_out", "distribution": "truncated_normal", "seed": null}}, "bias_initializer": {"class_name": "Zeros", "config": {}}, "kernel_regularizer": null, "bias_regularizer": null, "activity_regularizer": null, "kernel_constraint": null, "bias_constraint": null}, "name": "block4a_se_expand", "inbound_nodes": [[["block4a_se_reduce", 0, 0, {}]]]}, {"class_name": "Multiply", "config": {"name": "block4a_se_excite", "trainable": true, "dtype": "float32"}, "name": "block4a_se_excite", "inbound_nodes": [[["block4a_activation", 0, 0, {}], ["block4a_se_expand", 0, 0, {}]]]}, {"class_name": "Conv2D", "config": {"name": "block4a_project_conv", "trainable": true, "dtype": "float32", "filters": 96, "kernel_size": [1, 1], "strides": [1, 1], "padding": "same", "data_format": "channels_last", "dilation_rate": [1, 1], "groups": 1, "activation": "linear", "use_bias": false, "kernel_initializer": {"class_name": "VarianceScaling", "config": {"scale": 2.0, "mode": "fan_out", "distribution": "truncated_normal", "seed": null}}, "bias_initializer": {"class_name": "Zeros", "config": {}}, "kernel_regularizer": null, "bias_regularizer": null, "activity_regularizer": null, "kernel_constraint": null, "bias_constraint": null}, "name": "block4a_project_conv", "inbound_nodes": [[["block4a_se_excite", 0, 0, {}]]]}, {"class_name": "BatchNormalization", "config": {"name": "block4a_project_bn", "trainable": true, "dtype": "float32", "axis": [3], "momentum": 0.9, "epsilon": 0.001, "center": true, "scale": true, "beta_initializer": {"class_name": "Zeros", "config": {}}, "gamma_initializer": {"class_name": "Ones", "config": {}}, "moving_mean_initializer": {"class_name": "Zeros", "config": {}}, "moving_variance_initializer": {"class_name": "Ones", "config": {}}, "beta_regularizer": null, "gamma_regularizer": null, "beta_constraint": null, "gamma_constraint": null}, "name": "block4a_project_bn", "inbound_nodes": [[["block4a_project_conv", 0, 0, {}]]]}, {"class_name": "Conv2D", "config": {"name": "block4b_expand_conv", "trainable": true, "dtype": "float32", "filters": 384, "kernel_size": [1, 1], "strides": [1, 1], "padding": "same", "data_format": "channels_last", "dilation_rate": [1, 1], "groups": 1, "activation": "linear", "use_bias": false, "kernel_initializer": {"class_name": "VarianceScaling", "config": {"scale": 2.0, "mode": "fan_out", "distribution": "truncated_normal", "seed": null}}, "bias_initializer": {"class_name": "Zeros", "config": {}}, "kernel_regularizer": null, "bias_regularizer": null, "activity_regularizer": null, "kernel_constraint": null, "bias_constraint": null}, "name": "block4b_expand_conv", "inbound_nodes": [[["block4a_project_bn", 0, 0, {}]]]}, {"class_name": "BatchNormalization", "config": {"name": "block4b_expand_bn", "trainable": true, "dtype": "float32", "axis": [3], "momentum": 0.9, "epsilon": 0.001, "center": true, "scale": true, "beta_initializer": {"class_name": "Zeros", "config": {}}, "gamma_initializer": {"class_name": "Ones", "config": {}}, "moving_mean_initializer": {"class_name": "Zeros", "config": {}}, "moving_variance_initializer": {"class_name": "Ones", "config": {}}, "beta_regularizer": null, "gamma_regularizer": null, "beta_constraint": null, "gamma_constraint": null}, "name": "block4b_expand_bn", "inbound_nodes": [[["block4b_expand_conv", 0, 0, {}]]]}, {"class_name": "Activation", "config": {"name": "block4b_expand_activation", "trainable": true, "dtype": "float32", "activation": "swish"}, "name": "block4b_expand_activation", "inbound_nodes": [[["block4b_expand_bn", 0, 0, {}]]]}, {"class_name": "DepthwiseConv2D", "config": {"name": "block4b_dwconv2", "trainable": true, "dtype": "float32", "kernel_size": [3, 3], "strides": [1, 1], "padding": "same", "data_format": "channels_last", "dilation_rate": [1, 1], "groups": 1, "activation": "linear", "use_bias": false, "bias_initializer": {"class_name": "Zeros", "config": {}}, "bias_regularizer": null, "activity_regularizer": null, "bias_constraint": null, "depth_multiplier": 1, "depthwise_initializer": {"class_name": "VarianceScaling", "config": {"scale": 2.0, "mode": "fan_out", "distribution": "truncated_normal", "seed": null}}, "depthwise_regularizer": null, "depthwise_constraint": null}, "name": "block4b_dwconv2", "inbound_nodes": [[["block4b_expand_activation", 0, 0, {}]]]}, {"class_name": "BatchNormalization", "config": {"name": "block4b_bn", "trainable": true, "dtype": "float32", "axis": [3], "momentum": 0.9, "epsilon": 0.001, "center": true, "scale": true, "beta_initializer": {"class_name": "Zeros", "config": {}}, "gamma_initializer": {"class_name": "Ones", "config": {}}, "moving_mean_initializer": {"class_name": "Zeros", "config": {}}, "moving_variance_initializer": {"class_name": "Ones", "config": {}}, "beta_regularizer": null, "gamma_regularizer": null, "beta_constraint": null, "gamma_constraint": null}, "name": "block4b_bn", "inbound_nodes": [[["block4b_dwconv2", 0, 0, {}]]]}, {"class_name": "Activation", "config": {"name": "block4b_activation", "trainable": true, "dtype": "float32", "activation": "swish"}, "name": "block4b_activation", "inbound_nodes": [[["block4b_bn", 0, 0, {}]]]}, {"class_name": "GlobalAveragePooling2D", "config": {"name": "block4b_se_squeeze", "trainable": true, "dtype": "float32", "data_format": "channels_last", "keepdims": false}, "name": "block4b_se_squeeze", "inbound_nodes": [[["block4b_activation", 0, 0, {}]]]}, {"class_name": "Reshape", "config": {"name": "block4b_se_reshape", "trainable": true, "dtype": "float32", "target_shape": [1, 1, 384]}, "name": "block4b_se_reshape", "inbound_nodes": [[["block4b_se_squeeze", 0, 0, {}]]]}, {"class_name": "Conv2D", "config": {"name": "block4b_se_reduce", "trainable": true, "dtype": "float32", "filters": 24, "kernel_size": [1, 1], "strides": [1, 1], "padding": "same", "data_format": "channels_last", "dilation_rate": [1, 1], "groups": 1, "activation": "swish", "use_bias": true, "kernel_initializer": {"class_name": "VarianceScaling", "config": {"scale": 2.0, "mode": "fan_out", "distribution": "truncated_normal", "seed": null}}, "bias_initializer": {"class_name": "Zeros", "config": {}}, "kernel_regularizer": null, "bias_regularizer": null, "activity_regularizer": null, "kernel_constraint": null, "bias_constraint": null}, "name": "block4b_se_reduce", "inbound_nodes": [[["block4b_se_reshape", 0, 0, {}]]]}, {"class_name": "Conv2D", "config": {"name": "block4b_se_expand", "trainable": true, "dtype": "float32", "filters": 384, "kernel_size": [1, 1], "strides": [1, 1], "padding": "same", "data_format": "channels_last", "dilation_rate": [1, 1], "groups": 1, "activation": "sigmoid", "use_bias": true, "kernel_initializer": {"class_name": "VarianceScaling", "config": {"scale": 2.0, "mode": "fan_out", "distribution": "truncated_normal", "seed": null}}, "bias_initializer": {"class_name": "Zeros", "config": {}}, "kernel_regularizer": null, "bias_regularizer": null, "activity_regularizer": null, "kernel_constraint": null, "bias_constraint": null}, "name": "block4b_se_expand", "inbound_nodes": [[["block4b_se_reduce", 0, 0, {}]]]}, {"class_name": "Multiply", "config": {"name": "block4b_se_excite", "trainable": true, "dtype": "float32"}, "name": "block4b_se_excite", "inbound_nodes": [[["block4b_activation", 0, 0, {}], ["block4b_se_expand", 0, 0, {}]]]}, {"class_name": "Conv2D", "config": {"name": "block4b_project_conv", "trainable": true, "dtype": "float32", "filters": 96, "kernel_size": [1, 1], "strides": [1, 1], "padding": "same", "data_format": "channels_last", "dilation_rate": [1, 1], "groups": 1, "activation": "linear", "use_bias": false, "kernel_initializer": {"class_name": "VarianceScaling", "config": {"scale": 2.0, "mode": "fan_out", "distribution": "truncated_normal", "seed": null}}, "bias_initializer": {"class_name": "Zeros", "config": {}}, "kernel_regularizer": null, "bias_regularizer": null, "activity_regularizer": null, "kernel_constraint": null, "bias_constraint": null}, "name": "block4b_project_conv", "inbound_nodes": [[["block4b_se_excite", 0, 0, {}]]]}, {"class_name": "BatchNormalization", "config": {"name": "block4b_project_bn", "trainable": true, "dtype": "float32", "axis": [3], "momentum": 0.9, "epsilon": 0.001, "center": true, "scale": true, "beta_initializer": {"class_name": "Zeros", "config": {}}, "gamma_initializer": {"class_name": "Ones", "config": {}}, "moving_mean_initializer": {"class_name": "Zeros", "config": {}}, "moving_variance_initializer": {"class_name": "Ones", "config": {}}, "beta_regularizer": null, "gamma_regularizer": null, "beta_constraint": null, "gamma_constraint": null}, "name": "block4b_project_bn", "inbound_nodes": [[["block4b_project_conv", 0, 0, {}]]]}, {"class_name": "Add", "config": {"name": "block4b_add", "trainable": true, "dtype": "float32"}, "name": "block4b_add", "inbound_nodes": [[["block4b_project_bn", 0, 0, {}], ["block4a_project_bn", 0, 0, {}]]]}, {"class_name": "Conv2D", "config": {"name": "block4c_expand_conv", "trainable": true, "dtype": "float32", "filters": 384, "kernel_size": [1, 1], "strides": [1, 1], "padding": "same", "data_format": "channels_last", "dilation_rate": [1, 1], "groups": 1, "activation": "linear", "use_bias": false, "kernel_initializer": {"class_name": "VarianceScaling", "config": {"scale": 2.0, "mode": "fan_out", "distribution": "truncated_normal", "seed": null}}, "bias_initializer": {"class_name": "Zeros", "config": {}}, "kernel_regularizer": null, "bias_regularizer": null, "activity_regularizer": null, "kernel_constraint": null, "bias_constraint": null}, "name": "block4c_expand_conv", "inbound_nodes": [[["block4b_add", 0, 0, {}]]]}, {"class_name": "BatchNormalization", "config": {"name": "block4c_expand_bn", "trainable": true, "dtype": "float32", "axis": [3], "momentum": 0.9, "epsilon": 0.001, "center": true, "scale": true, "beta_initializer": {"class_name": "Zeros", "config": {}}, "gamma_initializer": {"class_name": "Ones", "config": {}}, "moving_mean_initializer": {"class_name": "Zeros", "config": {}}, "moving_variance_initializer": {"class_name": "Ones", "config": {}}, "beta_regularizer": null, "gamma_regularizer": null, "beta_constraint": null, "gamma_constraint": null}, "name": "block4c_expand_bn", "inbound_nodes": [[["block4c_expand_conv", 0, 0, {}]]]}, {"class_name": "Activation", "config": {"name": "block4c_expand_activation", "trainable": true, "dtype": "float32", "activation": "swish"}, "name": "block4c_expand_activation", "inbound_nodes": [[["block4c_expand_bn", 0, 0, {}]]]}, {"class_name": "DepthwiseConv2D", "config": {"name": "block4c_dwconv2", "trainable": true, "dtype": "float32", "kernel_size": [3, 3], "strides": [1, 1], "padding": "same", "data_format": "channels_last", "dilation_rate": [1, 1], "groups": 1, "activation": "linear", "use_bias": false, "bias_initializer": {"class_name": "Zeros", "config": {}}, "bias_regularizer": null, "activity_regularizer": null, "bias_constraint": null, "depth_multiplier": 1, "depthwise_initializer": {"class_name": "VarianceScaling", "config": {"scale": 2.0, "mode": "fan_out", "distribution": "truncated_normal", "seed": null}}, "depthwise_regularizer": null, "depthwise_constraint": null}, "name": "block4c_dwconv2", "inbound_nodes": [[["block4c_expand_activation", 0, 0, {}]]]}, {"class_name": "BatchNormalization", "config": {"name": "block4c_bn", "trainable": true, "dtype": "float32", "axis": [3], "momentum": 0.9, "epsilon": 0.001, "center": true, "scale": true, "beta_initializer": {"class_name": "Zeros", "config": {}}, "gamma_initializer": {"class_name": "Ones", "config": {}}, "moving_mean_initializer": {"class_name": "Zeros", "config": {}}, "moving_variance_initializer": {"class_name": "Ones", "config": {}}, "beta_regularizer": null, "gamma_regularizer": null, "beta_constraint": null, "gamma_constraint": null}, "name": "block4c_bn", "inbound_nodes": [[["block4c_dwconv2", 0, 0, {}]]]}, {"class_name": "Activation", "config": {"name": "block4c_activation", "trainable": true, "dtype": "float32", "activation": "swish"}, "name": "block4c_activation", "inbound_nodes": [[["block4c_bn", 0, 0, {}]]]}, {"class_name": "GlobalAveragePooling2D", "config": {"name": "block4c_se_squeeze", "trainable": true, "dtype": "float32", "data_format": "channels_last", "keepdims": false}, "name": "block4c_se_squeeze", "inbound_nodes": [[["block4c_activation", 0, 0, {}]]]}, {"class_name": "Reshape", "config": {"name": "block4c_se_reshape", "trainable": true, "dtype": "float32", "target_shape": [1, 1, 384]}, "name": "block4c_se_reshape", "inbound_nodes": [[["block4c_se_squeeze", 0, 0, {}]]]}, {"class_name": "Conv2D", "config": {"name": "block4c_se_reduce", "trainable": true, "dtype": "float32", "filters": 24, "kernel_size": [1, 1], "strides": [1, 1], "padding": "same", "data_format": "channels_last", "dilation_rate": [1, 1], "groups": 1, "activation": "swish", "use_bias": true, "kernel_initializer": {"class_name": "VarianceScaling", "config": {"scale": 2.0, "mode": "fan_out", "distribution": "truncated_normal", "seed": null}}, "bias_initializer": {"class_name": "Zeros", "config": {}}, "kernel_regularizer": null, "bias_regularizer": null, "activity_regularizer": null, "kernel_constraint": null, "bias_constraint": null}, "name": "block4c_se_reduce", "inbound_nodes": [[["block4c_se_reshape", 0, 0, {}]]]}, {"class_name": "Conv2D", "config": {"name": "block4c_se_expand", "trainable": true, "dtype": "float32", "filters": 384, "kernel_size": [1, 1], "strides": [1, 1], "padding": "same", "data_format": "channels_last", "dilation_rate": [1, 1], "groups": 1, "activation": "sigmoid", "use_bias": true, "kernel_initializer": {"class_name": "VarianceScaling", "config": {"scale": 2.0, "mode": "fan_out", "distribution": "truncated_normal", "seed": null}}, "bias_initializer": {"class_name": "Zeros", "config": {}}, "kernel_regularizer": null, "bias_regularizer": null, "activity_regularizer": null, "kernel_constraint": null, "bias_constraint": null}, "name": "block4c_se_expand", "inbound_nodes": [[["block4c_se_reduce", 0, 0, {}]]]}, {"class_name": "Multiply", "config": {"name": "block4c_se_excite", "trainable": true, "dtype": "float32"}, "name": "block4c_se_excite", "inbound_nodes": [[["block4c_activation", 0, 0, {}], ["block4c_se_expand", 0, 0, {}]]]}, {"class_name": "Conv2D", "config": {"name": "block4c_project_conv", "trainable": true, "dtype": "float32", "filters": 96, "kernel_size": [1, 1], "strides": [1, 1], "padding": "same", "data_format": "channels_last", "dilation_rate": [1, 1], "groups": 1, "activation": "linear", "use_bias": false, "kernel_initializer": {"class_name": "VarianceScaling", "config": {"scale": 2.0, "mode": "fan_out", "distribution": "truncated_normal", "seed": null}}, "bias_initializer": {"class_name": "Zeros", "config": {}}, "kernel_regularizer": null, "bias_regularizer": null, "activity_regularizer": null, "kernel_constraint": null, "bias_constraint": null}, "name": "block4c_project_conv", "inbound_nodes": [[["block4c_se_excite", 0, 0, {}]]]}, {"class_name": "BatchNormalization", "config": {"name": "block4c_project_bn", "trainable": true, "dtype": "float32", "axis": [3], "momentum": 0.9, "epsilon": 0.001, "center": true, "scale": true, "beta_initializer": {"class_name": "Zeros", "config": {}}, "gamma_initializer": {"class_name": "Ones", "config": {}}, "moving_mean_initializer": {"class_name": "Zeros", "config": {}}, "moving_variance_initializer": {"class_name": "Ones", "config": {}}, "beta_regularizer": null, "gamma_regularizer": null, "beta_constraint": null, "gamma_constraint": null}, "name": "block4c_project_bn", "inbound_nodes": [[["block4c_project_conv", 0, 0, {}]]]}, {"class_name": "Add", "config": {"name": "block4c_add", "trainable": true, "dtype": "float32"}, "name": "block4c_add", "inbound_nodes": [[["block4c_project_bn", 0, 0, {}], ["block4b_add", 0, 0, {}]]]}, {"class_name": "Conv2D", "config": {"name": "block5a_expand_conv", "trainable": true, "dtype": "float32", "filters": 576, "kernel_size": [1, 1], "strides": [1, 1], "padding": "same", "data_format": "channels_last", "dilation_rate": [1, 1], "groups": 1, "activation": "linear", "use_bias": false, "kernel_initializer": {"class_name": "VarianceScaling", "config": {"scale": 2.0, "mode": "fan_out", "distribution": "truncated_normal", "seed": null}}, "bias_initializer": {"class_name": "Zeros", "config": {}}, "kernel_regularizer": null, "bias_regularizer": null, "activity_regularizer": null, "kernel_constraint": null, "bias_constraint": null}, "name": "block5a_expand_conv", "inbound_nodes": [[["block4c_add", 0, 0, {}]]]}, {"class_name": "BatchNormalization", "config": {"name": "block5a_expand_bn", "trainable": true, "dtype": "float32", "axis": [3], "momentum": 0.9, "epsilon": 0.001, "center": true, "scale": true, "beta_initializer": {"class_name": "Zeros", "config": {}}, "gamma_initializer": {"class_name": "Ones", "config": {}}, "moving_mean_initializer": {"class_name": "Zeros", "config": {}}, "moving_variance_initializer": {"class_name": "Ones", "config": {}}, "beta_regularizer": null, "gamma_regularizer": null, "beta_constraint": null, "gamma_constraint": null}, "name": "block5a_expand_bn", "inbound_nodes": [[["block5a_expand_conv", 0, 0, {}]]]}, {"class_name": "Activation", "config": {"name": "block5a_expand_activation", "trainable": true, "dtype": "float32", "activation": "swish"}, "name": "block5a_expand_activation", "inbound_nodes": [[["block5a_expand_bn", 0, 0, {}]]]}, {"class_name": "DepthwiseConv2D", "config": {"name": "block5a_dwconv2", "trainable": true, "dtype": "float32", "kernel_size": [3, 3], "strides": [1, 1], "padding": "same", "data_format": "channels_last", "dilation_rate": [1, 1], "groups": 1, "activation": "linear", "use_bias": false, "bias_initializer": {"class_name": "Zeros", "config": {}}, "bias_regularizer": null, "activity_regularizer": null, "bias_constraint": null, "depth_multiplier": 1, "depthwise_initializer": {"class_name": "VarianceScaling", "config": {"scale": 2.0, "mode": "fan_out", "distribution": "truncated_normal", "seed": null}}, "depthwise_regularizer": null, "depthwise_constraint": null}, "name": "block5a_dwconv2", "inbound_nodes": [[["block5a_expand_activation", 0, 0, {}]]]}, {"class_name": "BatchNormalization", "config": {"name": "block5a_bn", "trainable": true, "dtype": "float32", "axis": [3], "momentum": 0.9, "epsilon": 0.001, "center": true, "scale": true, "beta_initializer": {"class_name": "Zeros", "config": {}}, "gamma_initializer": {"class_name": "Ones", "config": {}}, "moving_mean_initializer": {"class_name": "Zeros", "config": {}}, "moving_variance_initializer": {"class_name": "Ones", "config": {}}, "beta_regularizer": null, "gamma_regularizer": null, "beta_constraint": null, "gamma_constraint": null}, "name": "block5a_bn", "inbound_nodes": [[["block5a_dwconv2", 0, 0, {}]]]}, {"class_name": "Activation", "config": {"name": "block5a_activation", "trainable": true, "dtype": "float32", "activation": "swish"}, "name": "block5a_activation", "inbound_nodes": [[["block5a_bn", 0, 0, {}]]]}, {"class_name": "GlobalAveragePooling2D", "config": {"name": "block5a_se_squeeze", "trainable": true, "dtype": "float32", "data_format": "channels_last", "keepdims": false}, "name": "block5a_se_squeeze", "inbound_nodes": [[["block5a_activation", 0, 0, {}]]]}, {"class_name": "Reshape", "config": {"name": "block5a_se_reshape", "trainable": true, "dtype": "float32", "target_shape": [1, 1, 576]}, "name": "block5a_se_reshape", "inbound_nodes": [[["block5a_se_squeeze", 0, 0, {}]]]}, {"class_name": "Conv2D", "config": {"name": "block5a_se_reduce", "trainable": true, "dtype": "float32", "filters": 24, "kernel_size": [1, 1], "strides": [1, 1], "padding": "same", "data_format": "channels_last", "dilation_rate": [1, 1], "groups": 1, "activation": "swish", "use_bias": true, "kernel_initializer": {"class_name": "VarianceScaling", "config": {"scale": 2.0, "mode": "fan_out", "distribution": "truncated_normal", "seed": null}}, "bias_initializer": {"class_name": "Zeros", "config": {}}, "kernel_regularizer": null, "bias_regularizer": null, "activity_regularizer": null, "kernel_constraint": null, "bias_constraint": null}, "name": "block5a_se_reduce", "inbound_nodes": [[["block5a_se_reshape", 0, 0, {}]]]}, {"class_name": "Conv2D", "config": {"name": "block5a_se_expand", "trainable": true, "dtype": "float32", "filters": 576, "kernel_size": [1, 1], "strides": [1, 1], "padding": "same", "data_format": "channels_last", "dilation_rate": [1, 1], "groups": 1, "activation": "sigmoid", "use_bias": true, "kernel_initializer": {"class_name": "VarianceScaling", "config": {"scale": 2.0, "mode": "fan_out", "distribution": "truncated_normal", "seed": null}}, "bias_initializer": {"class_name": "Zeros", "config": {}}, "kernel_regularizer": null, "bias_regularizer": null, "activity_regularizer": null, "kernel_constraint": null, "bias_constraint": null}, "name": "block5a_se_expand", "inbound_nodes": [[["block5a_se_reduce", 0, 0, {}]]]}, {"class_name": "Multiply", "config": {"name": "block5a_se_excite", "trainable": true, "dtype": "float32"}, "name": "block5a_se_excite", "inbound_nodes": [[["block5a_activation", 0, 0, {}], ["block5a_se_expand", 0, 0, {}]]]}, {"class_name": "Conv2D", "config": {"name": "block5a_project_conv", "trainable": true, "dtype": "float32", "filters": 112, "kernel_size": [1, 1], "strides": [1, 1], "padding": "same", "data_format": "channels_last", "dilation_rate": [1, 1], "groups": 1, "activation": "linear", "use_bias": false, "kernel_initializer": {"class_name": "VarianceScaling", "config": {"scale": 2.0, "mode": "fan_out", "distribution": "truncated_normal", "seed": null}}, "bias_initializer": {"class_name": "Zeros", "config": {}}, "kernel_regularizer": null, "bias_regularizer": null, "activity_regularizer": null, "kernel_constraint": null, "bias_constraint": null}, "name": "block5a_project_conv", "inbound_nodes": [[["block5a_se_excite", 0, 0, {}]]]}, {"class_name": "BatchNormalization", "config": {"name": "block5a_project_bn", "trainable": true, "dtype": "float32", "axis": [3], "momentum": 0.9, "epsilon": 0.001, "center": true, "scale": true, "beta_initializer": {"class_name": "Zeros", "config": {}}, "gamma_initializer": {"class_name": "Ones", "config": {}}, "moving_mean_initializer": {"class_name": "Zeros", "config": {}}, "moving_variance_initializer": {"class_name": "Ones", "config": {}}, "beta_regularizer": null, "gamma_regularizer": null, "beta_constraint": null, "gamma_constraint": null}, "name": "block5a_project_bn", "inbound_nodes": [[["block5a_project_conv", 0, 0, {}]]]}, {"class_name": "Conv2D", "config": {"name": "block5b_expand_conv", "trainable": true, "dtype": "float32", "filters": 672, "kernel_size": [1, 1], "strides": [1, 1], "padding": "same", "data_format": "channels_last", "dilation_rate": [1, 1], "groups": 1, "activation": "linear", "use_bias": false, "kernel_initializer": {"class_name": "VarianceScaling", "config": {"scale": 2.0, "mode": "fan_out", "distribution": "truncated_normal", "seed": null}}, "bias_initializer": {"class_name": "Zeros", "config": {}}, "kernel_regularizer": null, "bias_regularizer": null, "activity_regularizer": null, "kernel_constraint": null, "bias_constraint": null}, "name": "block5b_expand_conv", "inbound_nodes": [[["block5a_project_bn", 0, 0, {}]]]}, {"class_name": "BatchNormalization", "config": {"name": "block5b_expand_bn", "trainable": true, "dtype": "float32", "axis": [3], "momentum": 0.9, "epsilon": 0.001, "center": true, "scale": true, "beta_initializer": {"class_name": "Zeros", "config": {}}, "gamma_initializer": {"class_name": "Ones", "config": {}}, "moving_mean_initializer": {"class_name": "Zeros", "config": {}}, "moving_variance_initializer": {"class_name": "Ones", "config": {}}, "beta_regularizer": null, "gamma_regularizer": null, "beta_constraint": null, "gamma_constraint": null}, "name": "block5b_expand_bn", "inbound_nodes": [[["block5b_expand_conv", 0, 0, {}]]]}, {"class_name": "Activation", "config": {"name": "block5b_expand_activation", "trainable": true, "dtype": "float32", "activation": "swish"}, "name": "block5b_expand_activation", "inbound_nodes": [[["block5b_expand_bn", 0, 0, {}]]]}, {"class_name": "DepthwiseConv2D", "config": {"name": "block5b_dwconv2", "trainable": true, "dtype": "float32", "kernel_size": [3, 3], "strides": [1, 1], "padding": "same", "data_format": "channels_last", "dilation_rate": [1, 1], "groups": 1, "activation": "linear", "use_bias": false, "bias_initializer": {"class_name": "Zeros", "config": {}}, "bias_regularizer": null, "activity_regularizer": null, "bias_constraint": null, "depth_multiplier": 1, "depthwise_initializer": {"class_name": "VarianceScaling", "config": {"scale": 2.0, "mode": "fan_out", "distribution": "truncated_normal", "seed": null}}, "depthwise_regularizer": null, "depthwise_constraint": null}, "name": "block5b_dwconv2", "inbound_nodes": [[["block5b_expand_activation", 0, 0, {}]]]}, {"class_name": "BatchNormalization", "config": {"name": "block5b_bn", "trainable": true, "dtype": "float32", "axis": [3], "momentum": 0.9, "epsilon": 0.001, "center": true, "scale": true, "beta_initializer": {"class_name": "Zeros", "config": {}}, "gamma_initializer": {"class_name": "Ones", "config": {}}, "moving_mean_initializer": {"class_name": "Zeros", "config": {}}, "moving_variance_initializer": {"class_name": "Ones", "config": {}}, "beta_regularizer": null, "gamma_regularizer": null, "beta_constraint": null, "gamma_constraint": null}, "name": "block5b_bn", "inbound_nodes": [[["block5b_dwconv2", 0, 0, {}]]]}, {"class_name": "Activation", "config": {"name": "block5b_activation", "trainable": true, "dtype": "float32", "activation": "swish"}, "name": "block5b_activation", "inbound_nodes": [[["block5b_bn", 0, 0, {}]]]}, {"class_name": "GlobalAveragePooling2D", "config": {"name": "block5b_se_squeeze", "trainable": true, "dtype": "float32", "data_format": "channels_last", "keepdims": false}, "name": "block5b_se_squeeze", "inbound_nodes": [[["block5b_activation", 0, 0, {}]]]}, {"class_name": "Reshape", "config": {"name": "block5b_se_reshape", "trainable": true, "dtype": "float32", "target_shape": [1, 1, 672]}, "name": "block5b_se_reshape", "inbound_nodes": [[["block5b_se_squeeze", 0, 0, {}]]]}, {"class_name": "Conv2D", "config": {"name": "block5b_se_reduce", "trainable": true, "dtype": "float32", "filters": 28, "kernel_size": [1, 1], "strides": [1, 1], "padding": "same", "data_format": "channels_last", "dilation_rate": [1, 1], "groups": 1, "activation": "swish", "use_bias": true, "kernel_initializer": {"class_name": "VarianceScaling", "config": {"scale": 2.0, "mode": "fan_out", "distribution": "truncated_normal", "seed": null}}, "bias_initializer": {"class_name": "Zeros", "config": {}}, "kernel_regularizer": null, "bias_regularizer": null, "activity_regularizer": null, "kernel_constraint": null, "bias_constraint": null}, "name": "block5b_se_reduce", "inbound_nodes": [[["block5b_se_reshape", 0, 0, {}]]]}, {"class_name": "Conv2D", "config": {"name": "block5b_se_expand", "trainable": true, "dtype": "float32", "filters": 672, "kernel_size": [1, 1], "strides": [1, 1], "padding": "same", "data_format": "channels_last", "dilation_rate": [1, 1], "groups": 1, "activation": "sigmoid", "use_bias": true, "kernel_initializer": {"class_name": "VarianceScaling", "config": {"scale": 2.0, "mode": "fan_out", "distribution": "truncated_normal", "seed": null}}, "bias_initializer": {"class_name": "Zeros", "config": {}}, "kernel_regularizer": null, "bias_regularizer": null, "activity_regularizer": null, "kernel_constraint": null, "bias_constraint": null}, "name": "block5b_se_expand", "inbound_nodes": [[["block5b_se_reduce", 0, 0, {}]]]}, {"class_name": "Multiply", "config": {"name": "block5b_se_excite", "trainable": true, "dtype": "float32"}, "name": "block5b_se_excite", "inbound_nodes": [[["block5b_activation", 0, 0, {}], ["block5b_se_expand", 0, 0, {}]]]}, {"class_name": "Conv2D", "config": {"name": "block5b_project_conv", "trainable": true, "dtype": "float32", "filters": 112, "kernel_size": [1, 1], "strides": [1, 1], "padding": "same", "data_format": "channels_last", "dilation_rate": [1, 1], "groups": 1, "activation": "linear", "use_bias": false, "kernel_initializer": {"class_name": "VarianceScaling", "config": {"scale": 2.0, "mode": "fan_out", "distribution": "truncated_normal", "seed": null}}, "bias_initializer": {"class_name": "Zeros", "config": {}}, "kernel_regularizer": null, "bias_regularizer": null, "activity_regularizer": null, "kernel_constraint": null, "bias_constraint": null}, "name": "block5b_project_conv", "inbound_nodes": [[["block5b_se_excite", 0, 0, {}]]]}, {"class_name": "BatchNormalization", "config": {"name": "block5b_project_bn", "trainable": true, "dtype": "float32", "axis": [3], "momentum": 0.9, "epsilon": 0.001, "center": true, "scale": true, "beta_initializer": {"class_name": "Zeros", "config": {}}, "gamma_initializer": {"class_name": "Ones", "config": {}}, "moving_mean_initializer": {"class_name": "Zeros", "config": {}}, "moving_variance_initializer": {"class_name": "Ones", "config": {}}, "beta_regularizer": null, "gamma_regularizer": null, "beta_constraint": null, "gamma_constraint": null}, "name": "block5b_project_bn", "inbound_nodes": [[["block5b_project_conv", 0, 0, {}]]]}, {"class_name": "Add", "config": {"name": "block5b_add", "trainable": true, "dtype": "float32"}, "name": "block5b_add", "inbound_nodes": [[["block5b_project_bn", 0, 0, {}], ["block5a_project_bn", 0, 0, {}]]]}, {"class_name": "Conv2D", "config": {"name": "block5c_expand_conv", "trainable": true, "dtype": "float32", "filters": 672, "kernel_size": [1, 1], "strides": [1, 1], "padding": "same", "data_format": "channels_last", "dilation_rate": [1, 1], "groups": 1, "activation": "linear", "use_bias": false, "kernel_initializer": {"class_name": "VarianceScaling", "config": {"scale": 2.0, "mode": "fan_out", "distribution": "truncated_normal", "seed": null}}, "bias_initializer": {"class_name": "Zeros", "config": {}}, "kernel_regularizer": null, "bias_regularizer": null, "activity_regularizer": null, "kernel_constraint": null, "bias_constraint": null}, "name": "block5c_expand_conv", "inbound_nodes": [[["block5b_add", 0, 0, {}]]]}, {"class_name": "BatchNormalization", "config": {"name": "block5c_expand_bn", "trainable": true, "dtype": "float32", "axis": [3], "momentum": 0.9, "epsilon": 0.001, "center": true, "scale": true, "beta_initializer": {"class_name": "Zeros", "config": {}}, "gamma_initializer": {"class_name": "Ones", "config": {}}, "moving_mean_initializer": {"class_name": "Zeros", "config": {}}, "moving_variance_initializer": {"class_name": "Ones", "config": {}}, "beta_regularizer": null, "gamma_regularizer": null, "beta_constraint": null, "gamma_constraint": null}, "name": "block5c_expand_bn", "inbound_nodes": [[["block5c_expand_conv", 0, 0, {}]]]}, {"class_name": "Activation", "config": {"name": "block5c_expand_activation", "trainable": true, "dtype": "float32", "activation": "swish"}, "name": "block5c_expand_activation", "inbound_nodes": [[["block5c_expand_bn", 0, 0, {}]]]}, {"class_name": "DepthwiseConv2D", "config": {"name": "block5c_dwconv2", "trainable": true, "dtype": "float32", "kernel_size": [3, 3], "strides": [1, 1], "padding": "same", "data_format": "channels_last", "dilation_rate": [1, 1], "groups": 1, "activation": "linear", "use_bias": false, "bias_initializer": {"class_name": "Zeros", "config": {}}, "bias_regularizer": null, "activity_regularizer": null, "bias_constraint": null, "depth_multiplier": 1, "depthwise_initializer": {"class_name": "VarianceScaling", "config": {"scale": 2.0, "mode": "fan_out", "distribution": "truncated_normal", "seed": null}}, "depthwise_regularizer": null, "depthwise_constraint": null}, "name": "block5c_dwconv2", "inbound_nodes": [[["block5c_expand_activation", 0, 0, {}]]]}, {"class_name": "BatchNormalization", "config": {"name": "block5c_bn", "trainable": true, "dtype": "float32", "axis": [3], "momentum": 0.9, "epsilon": 0.001, "center": true, "scale": true, "beta_initializer": {"class_name": "Zeros", "config": {}}, "gamma_initializer": {"class_name": "Ones", "config": {}}, "moving_mean_initializer": {"class_name": "Zeros", "config": {}}, "moving_variance_initializer": {"class_name": "Ones", "config": {}}, "beta_regularizer": null, "gamma_regularizer": null, "beta_constraint": null, "gamma_constraint": null}, "name": "block5c_bn", "inbound_nodes": [[["block5c_dwconv2", 0, 0, {}]]]}, {"class_name": "Activation", "config": {"name": "block5c_activation", "trainable": true, "dtype": "float32", "activation": "swish"}, "name": "block5c_activation", "inbound_nodes": [[["block5c_bn", 0, 0, {}]]]}, {"class_name": "GlobalAveragePooling2D", "config": {"name": "block5c_se_squeeze", "trainable": true, "dtype": "float32", "data_format": "channels_last", "keepdims": false}, "name": "block5c_se_squeeze", "inbound_nodes": [[["block5c_activation", 0, 0, {}]]]}, {"class_name": "Reshape", "config": {"name": "block5c_se_reshape", "trainable": true, "dtype": "float32", "target_shape": [1, 1, 672]}, "name": "block5c_se_reshape", "inbound_nodes": [[["block5c_se_squeeze", 0, 0, {}]]]}, {"class_name": "Conv2D", "config": {"name": "block5c_se_reduce", "trainable": true, "dtype": "float32", "filters": 28, "kernel_size": [1, 1], "strides": [1, 1], "padding": "same", "data_format": "channels_last", "dilation_rate": [1, 1], "groups": 1, "activation": "swish", "use_bias": true, "kernel_initializer": {"class_name": "VarianceScaling", "config": {"scale": 2.0, "mode": "fan_out", "distribution": "truncated_normal", "seed": null}}, "bias_initializer": {"class_name": "Zeros", "config": {}}, "kernel_regularizer": null, "bias_regularizer": null, "activity_regularizer": null, "kernel_constraint": null, "bias_constraint": null}, "name": "block5c_se_reduce", "inbound_nodes": [[["block5c_se_reshape", 0, 0, {}]]]}, {"class_name": "Conv2D", "config": {"name": "block5c_se_expand", "trainable": true, "dtype": "float32", "filters": 672, "kernel_size": [1, 1], "strides": [1, 1], "padding": "same", "data_format": "channels_last", "dilation_rate": [1, 1], "groups": 1, "activation": "sigmoid", "use_bias": true, "kernel_initializer": {"class_name": "VarianceScaling", "config": {"scale": 2.0, "mode": "fan_out", "distribution": "truncated_normal", "seed": null}}, "bias_initializer": {"class_name": "Zeros", "config": {}}, "kernel_regularizer": null, "bias_regularizer": null, "activity_regularizer": null, "kernel_constraint": null, "bias_constraint": null}, "name": "block5c_se_expand", "inbound_nodes": [[["block5c_se_reduce", 0, 0, {}]]]}, {"class_name": "Multiply", "config": {"name": "block5c_se_excite", "trainable": true, "dtype": "float32"}, "name": "block5c_se_excite", "inbound_nodes": [[["block5c_activation", 0, 0, {}], ["block5c_se_expand", 0, 0, {}]]]}, {"class_name": "Conv2D", "config": {"name": "block5c_project_conv", "trainable": true, "dtype": "float32", "filters": 112, "kernel_size": [1, 1], "strides": [1, 1], "padding": "same", "data_format": "channels_last", "dilation_rate": [1, 1], "groups": 1, "activation": "linear", "use_bias": false, "kernel_initializer": {"class_name": "VarianceScaling", "config": {"scale": 2.0, "mode": "fan_out", "distribution": "truncated_normal", "seed": null}}, "bias_initializer": {"class_name": "Zeros", "config": {}}, "kernel_regularizer": null, "bias_regularizer": null, "activity_regularizer": null, "kernel_constraint": null, "bias_constraint": null}, "name": "block5c_project_conv", "inbound_nodes": [[["block5c_se_excite", 0, 0, {}]]]}, {"class_name": "BatchNormalization", "config": {"name": "block5c_project_bn", "trainable": true, "dtype": "float32", "axis": [3], "momentum": 0.9, "epsilon": 0.001, "center": true, "scale": true, "beta_initializer": {"class_name": "Zeros", "config": {}}, "gamma_initializer": {"class_name": "Ones", "config": {}}, "moving_mean_initializer": {"class_name": "Zeros", "config": {}}, "moving_variance_initializer": {"class_name": "Ones", "config": {}}, "beta_regularizer": null, "gamma_regularizer": null, "beta_constraint": null, "gamma_constraint": null}, "name": "block5c_project_bn", "inbound_nodes": [[["block5c_project_conv", 0, 0, {}]]]}, {"class_name": "Add", "config": {"name": "block5c_add", "trainable": true, "dtype": "float32"}, "name": "block5c_add", "inbound_nodes": [[["block5c_project_bn", 0, 0, {}], ["block5b_add", 0, 0, {}]]]}, {"class_name": "Conv2D", "config": {"name": "block5d_expand_conv", "trainable": true, "dtype": "float32", "filters": 672, "kernel_size": [1, 1], "strides": [1, 1], "padding": "same", "data_format": "channels_last", "dilation_rate": [1, 1], "groups": 1, "activation": "linear", "use_bias": false, "kernel_initializer": {"class_name": "VarianceScaling", "config": {"scale": 2.0, "mode": "fan_out", "distribution": "truncated_normal", "seed": null}}, "bias_initializer": {"class_name": "Zeros", "config": {}}, "kernel_regularizer": null, "bias_regularizer": null, "activity_regularizer": null, "kernel_constraint": null, "bias_constraint": null}, "name": "block5d_expand_conv", "inbound_nodes": [[["block5c_add", 0, 0, {}]]]}, {"class_name": "BatchNormalization", "config": {"name": "block5d_expand_bn", "trainable": true, "dtype": "float32", "axis": [3], "momentum": 0.9, "epsilon": 0.001, "center": true, "scale": true, "beta_initializer": {"class_name": "Zeros", "config": {}}, "gamma_initializer": {"class_name": "Ones", "config": {}}, "moving_mean_initializer": {"class_name": "Zeros", "config": {}}, "moving_variance_initializer": {"class_name": "Ones", "config": {}}, "beta_regularizer": null, "gamma_regularizer": null, "beta_constraint": null, "gamma_constraint": null}, "name": "block5d_expand_bn", "inbound_nodes": [[["block5d_expand_conv", 0, 0, {}]]]}, {"class_name": "Activation", "config": {"name": "block5d_expand_activation", "trainable": true, "dtype": "float32", "activation": "swish"}, "name": "block5d_expand_activation", "inbound_nodes": [[["block5d_expand_bn", 0, 0, {}]]]}, {"class_name": "DepthwiseConv2D", "config": {"name": "block5d_dwconv2", "trainable": true, "dtype": "float32", "kernel_size": [3, 3], "strides": [1, 1], "padding": "same", "data_format": "channels_last", "dilation_rate": [1, 1], "groups": 1, "activation": "linear", "use_bias": false, "bias_initializer": {"class_name": "Zeros", "config": {}}, "bias_regularizer": null, "activity_regularizer": null, "bias_constraint": null, "depth_multiplier": 1, "depthwise_initializer": {"class_name": "VarianceScaling", "config": {"scale": 2.0, "mode": "fan_out", "distribution": "truncated_normal", "seed": null}}, "depthwise_regularizer": null, "depthwise_constraint": null}, "name": "block5d_dwconv2", "inbound_nodes": [[["block5d_expand_activation", 0, 0, {}]]]}, {"class_name": "BatchNormalization", "config": {"name": "block5d_bn", "trainable": true, "dtype": "float32", "axis": [3], "momentum": 0.9, "epsilon": 0.001, "center": true, "scale": true, "beta_initializer": {"class_name": "Zeros", "config": {}}, "gamma_initializer": {"class_name": "Ones", "config": {}}, "moving_mean_initializer": {"class_name": "Zeros", "config": {}}, "moving_variance_initializer": {"class_name": "Ones", "config": {}}, "beta_regularizer": null, "gamma_regularizer": null, "beta_constraint": null, "gamma_constraint": null}, "name": "block5d_bn", "inbound_nodes": [[["block5d_dwconv2", 0, 0, {}]]]}, {"class_name": "Activation", "config": {"name": "block5d_activation", "trainable": true, "dtype": "float32", "activation": "swish"}, "name": "block5d_activation", "inbound_nodes": [[["block5d_bn", 0, 0, {}]]]}, {"class_name": "GlobalAveragePooling2D", "config": {"name": "block5d_se_squeeze", "trainable": true, "dtype": "float32", "data_format": "channels_last", "keepdims": false}, "name": "block5d_se_squeeze", "inbound_nodes": [[["block5d_activation", 0, 0, {}]]]}, {"class_name": "Reshape", "config": {"name": "block5d_se_reshape", "trainable": true, "dtype": "float32", "target_shape": [1, 1, 672]}, "name": "block5d_se_reshape", "inbound_nodes": [[["block5d_se_squeeze", 0, 0, {}]]]}, {"class_name": "Conv2D", "config": {"name": "block5d_se_reduce", "trainable": true, "dtype": "float32", "filters": 28, "kernel_size": [1, 1], "strides": [1, 1], "padding": "same", "data_format": "channels_last", "dilation_rate": [1, 1], "groups": 1, "activation": "swish", "use_bias": true, "kernel_initializer": {"class_name": "VarianceScaling", "config": {"scale": 2.0, "mode": "fan_out", "distribution": "truncated_normal", "seed": null}}, "bias_initializer": {"class_name": "Zeros", "config": {}}, "kernel_regularizer": null, "bias_regularizer": null, "activity_regularizer": null, "kernel_constraint": null, "bias_constraint": null}, "name": "block5d_se_reduce", "inbound_nodes": [[["block5d_se_reshape", 0, 0, {}]]]}, {"class_name": "Conv2D", "config": {"name": "block5d_se_expand", "trainable": true, "dtype": "float32", "filters": 672, "kernel_size": [1, 1], "strides": [1, 1], "padding": "same", "data_format": "channels_last", "dilation_rate": [1, 1], "groups": 1, "activation": "sigmoid", "use_bias": true, "kernel_initializer": {"class_name": "VarianceScaling", "config": {"scale": 2.0, "mode": "fan_out", "distribution": "truncated_normal", "seed": null}}, "bias_initializer": {"class_name": "Zeros", "config": {}}, "kernel_regularizer": null, "bias_regularizer": null, "activity_regularizer": null, "kernel_constraint": null, "bias_constraint": null}, "name": "block5d_se_expand", "inbound_nodes": [[["block5d_se_reduce", 0, 0, {}]]]}, {"class_name": "Multiply", "config": {"name": "block5d_se_excite", "trainable": true, "dtype": "float32"}, "name": "block5d_se_excite", "inbound_nodes": [[["block5d_activation", 0, 0, {}], ["block5d_se_expand", 0, 0, {}]]]}, {"class_name": "Conv2D", "config": {"name": "block5d_project_conv", "trainable": true, "dtype": "float32", "filters": 112, "kernel_size": [1, 1], "strides": [1, 1], "padding": "same", "data_format": "channels_last", "dilation_rate": [1, 1], "groups": 1, "activation": "linear", "use_bias": false, "kernel_initializer": {"class_name": "VarianceScaling", "config": {"scale": 2.0, "mode": "fan_out", "distribution": "truncated_normal", "seed": null}}, "bias_initializer": {"class_name": "Zeros", "config": {}}, "kernel_regularizer": null, "bias_regularizer": null, "activity_regularizer": null, "kernel_constraint": null, "bias_constraint": null}, "name": "block5d_project_conv", "inbound_nodes": [[["block5d_se_excite", 0, 0, {}]]]}, {"class_name": "BatchNormalization", "config": {"name": "block5d_project_bn", "trainable": true, "dtype": "float32", "axis": [3], "momentum": 0.9, "epsilon": 0.001, "center": true, "scale": true, "beta_initializer": {"class_name": "Zeros", "config": {}}, "gamma_initializer": {"class_name": "Ones", "config": {}}, "moving_mean_initializer": {"class_name": "Zeros", "config": {}}, "moving_variance_initializer": {"class_name": "Ones", "config": {}}, "beta_regularizer": null, "gamma_regularizer": null, "beta_constraint": null, "gamma_constraint": null}, "name": "block5d_project_bn", "inbound_nodes": [[["block5d_project_conv", 0, 0, {}]]]}, {"class_name": "Add", "config": {"name": "block5d_add", "trainable": true, "dtype": "float32"}, "name": "block5d_add", "inbound_nodes": [[["block5d_project_bn", 0, 0, {}], ["block5c_add", 0, 0, {}]]]}, {"class_name": "Conv2D", "config": {"name": "block5e_expand_conv", "trainable": true, "dtype": "float32", "filters": 672, "kernel_size": [1, 1], "strides": [1, 1], "padding": "same", "data_format": "channels_last", "dilation_rate": [1, 1], "groups": 1, "activation": "linear", "use_bias": false, "kernel_initializer": {"class_name": "VarianceScaling", "config": {"scale": 2.0, "mode": "fan_out", "distribution": "truncated_normal", "seed": null}}, "bias_initializer": {"class_name": "Zeros", "config": {}}, "kernel_regularizer": null, "bias_regularizer": null, "activity_regularizer": null, "kernel_constraint": null, "bias_constraint": null}, "name": "block5e_expand_conv", "inbound_nodes": [[["block5d_add", 0, 0, {}]]]}, {"class_name": "BatchNormalization", "config": {"name": "block5e_expand_bn", "trainable": true, "dtype": "float32", "axis": [3], "momentum": 0.9, "epsilon": 0.001, "center": true, "scale": true, "beta_initializer": {"class_name": "Zeros", "config": {}}, "gamma_initializer": {"class_name": "Ones", "config": {}}, "moving_mean_initializer": {"class_name": "Zeros", "config": {}}, "moving_variance_initializer": {"class_name": "Ones", "config": {}}, "beta_regularizer": null, "gamma_regularizer": null, "beta_constraint": null, "gamma_constraint": null}, "name": "block5e_expand_bn", "inbound_nodes": [[["block5e_expand_conv", 0, 0, {}]]]}, {"class_name": "Activation", "config": {"name": "block5e_expand_activation", "trainable": true, "dtype": "float32", "activation": "swish"}, "name": "block5e_expand_activation", "inbound_nodes": [[["block5e_expand_bn", 0, 0, {}]]]}, {"class_name": "DepthwiseConv2D", "config": {"name": "block5e_dwconv2", "trainable": true, "dtype": "float32", "kernel_size": [3, 3], "strides": [1, 1], "padding": "same", "data_format": "channels_last", "dilation_rate": [1, 1], "groups": 1, "activation": "linear", "use_bias": false, "bias_initializer": {"class_name": "Zeros", "config": {}}, "bias_regularizer": null, "activity_regularizer": null, "bias_constraint": null, "depth_multiplier": 1, "depthwise_initializer": {"class_name": "VarianceScaling", "config": {"scale": 2.0, "mode": "fan_out", "distribution": "truncated_normal", "seed": null}}, "depthwise_regularizer": null, "depthwise_constraint": null}, "name": "block5e_dwconv2", "inbound_nodes": [[["block5e_expand_activation", 0, 0, {}]]]}, {"class_name": "BatchNormalization", "config": {"name": "block5e_bn", "trainable": true, "dtype": "float32", "axis": [3], "momentum": 0.9, "epsilon": 0.001, "center": true, "scale": true, "beta_initializer": {"class_name": "Zeros", "config": {}}, "gamma_initializer": {"class_name": "Ones", "config": {}}, "moving_mean_initializer": {"class_name": "Zeros", "config": {}}, "moving_variance_initializer": {"class_name": "Ones", "config": {}}, "beta_regularizer": null, "gamma_regularizer": null, "beta_constraint": null, "gamma_constraint": null}, "name": "block5e_bn", "inbound_nodes": [[["block5e_dwconv2", 0, 0, {}]]]}, {"class_name": "Activation", "config": {"name": "block5e_activation", "trainable": true, "dtype": "float32", "activation": "swish"}, "name": "block5e_activation", "inbound_nodes": [[["block5e_bn", 0, 0, {}]]]}, {"class_name": "GlobalAveragePooling2D", "config": {"name": "block5e_se_squeeze", "trainable": true, "dtype": "float32", "data_format": "channels_last", "keepdims": false}, "name": "block5e_se_squeeze", "inbound_nodes": [[["block5e_activation", 0, 0, {}]]]}, {"class_name": "Reshape", "config": {"name": "block5e_se_reshape", "trainable": true, "dtype": "float32", "target_shape": [1, 1, 672]}, "name": "block5e_se_reshape", "inbound_nodes": [[["block5e_se_squeeze", 0, 0, {}]]]}, {"class_name": "Conv2D", "config": {"name": "block5e_se_reduce", "trainable": true, "dtype": "float32", "filters": 28, "kernel_size": [1, 1], "strides": [1, 1], "padding": "same", "data_format": "channels_last", "dilation_rate": [1, 1], "groups": 1, "activation": "swish", "use_bias": true, "kernel_initializer": {"class_name": "VarianceScaling", "config": {"scale": 2.0, "mode": "fan_out", "distribution": "truncated_normal", "seed": null}}, "bias_initializer": {"class_name": "Zeros", "config": {}}, "kernel_regularizer": null, "bias_regularizer": null, "activity_regularizer": null, "kernel_constraint": null, "bias_constraint": null}, "name": "block5e_se_reduce", "inbound_nodes": [[["block5e_se_reshape", 0, 0, {}]]]}, {"class_name": "Conv2D", "config": {"name": "block5e_se_expand", "trainable": true, "dtype": "float32", "filters": 672, "kernel_size": [1, 1], "strides": [1, 1], "padding": "same", "data_format": "channels_last", "dilation_rate": [1, 1], "groups": 1, "activation": "sigmoid", "use_bias": true, "kernel_initializer": {"class_name": "VarianceScaling", "config": {"scale": 2.0, "mode": "fan_out", "distribution": "truncated_normal", "seed": null}}, "bias_initializer": {"class_name": "Zeros", "config": {}}, "kernel_regularizer": null, "bias_regularizer": null, "activity_regularizer": null, "kernel_constraint": null, "bias_constraint": null}, "name": "block5e_se_expand", "inbound_nodes": [[["block5e_se_reduce", 0, 0, {}]]]}, {"class_name": "Multiply", "config": {"name": "block5e_se_excite", "trainable": true, "dtype": "float32"}, "name": "block5e_se_excite", "inbound_nodes": [[["block5e_activation", 0, 0, {}], ["block5e_se_expand", 0, 0, {}]]]}, {"class_name": "Conv2D", "config": {"name": "block5e_project_conv", "trainable": true, "dtype": "float32", "filters": 112, "kernel_size": [1, 1], "strides": [1, 1], "padding": "same", "data_format": "channels_last", "dilation_rate": [1, 1], "groups": 1, "activation": "linear", "use_bias": false, "kernel_initializer": {"class_name": "VarianceScaling", "config": {"scale": 2.0, "mode": "fan_out", "distribution": "truncated_normal", "seed": null}}, "bias_initializer": {"class_name": "Zeros", "config": {}}, "kernel_regularizer": null, "bias_regularizer": null, "activity_regularizer": null, "kernel_constraint": null, "bias_constraint": null}, "name": "block5e_project_conv", "inbound_nodes": [[["block5e_se_excite", 0, 0, {}]]]}, {"class_name": "BatchNormalization", "config": {"name": "block5e_project_bn", "trainable": true, "dtype": "float32", "axis": [3], "momentum": 0.9, "epsilon": 0.001, "center": true, "scale": true, "beta_initializer": {"class_name": "Zeros", "config": {}}, "gamma_initializer": {"class_name": "Ones", "config": {}}, "moving_mean_initializer": {"class_name": "Zeros", "config": {}}, "moving_variance_initializer": {"class_name": "Ones", "config": {}}, "beta_regularizer": null, "gamma_regularizer": null, "beta_constraint": null, "gamma_constraint": null}, "name": "block5e_project_bn", "inbound_nodes": [[["block5e_project_conv", 0, 0, {}]]]}, {"class_name": "Add", "config": {"name": "block5e_add", "trainable": true, "dtype": "float32"}, "name": "block5e_add", "inbound_nodes": [[["block5e_project_bn", 0, 0, {}], ["block5d_add", 0, 0, {}]]]}, {"class_name": "Conv2D", "config": {"name": "block6a_expand_conv", "trainable": true, "dtype": "float32", "filters": 672, "kernel_size": [1, 1], "strides": [1, 1], "padding": "same", "data_format": "channels_last", "dilation_rate": [1, 1], "groups": 1, "activation": "linear", "use_bias": false, "kernel_initializer": {"class_name": "VarianceScaling", "config": {"scale": 2.0, "mode": "fan_out", "distribution": "truncated_normal", "seed": null}}, "bias_initializer": {"class_name": "Zeros", "config": {}}, "kernel_regularizer": null, "bias_regularizer": null, "activity_regularizer": null, "kernel_constraint": null, "bias_constraint": null}, "name": "block6a_expand_conv", "inbound_nodes": [[["block5e_add", 0, 0, {}]]]}, {"class_name": "BatchNormalization", "config": {"name": "block6a_expand_bn", "trainable": true, "dtype": "float32", "axis": [3], "momentum": 0.9, "epsilon": 0.001, "center": true, "scale": true, "beta_initializer": {"class_name": "Zeros", "config": {}}, "gamma_initializer": {"class_name": "Ones", "config": {}}, "moving_mean_initializer": {"class_name": "Zeros", "config": {}}, "moving_variance_initializer": {"class_name": "Ones", "config": {}}, "beta_regularizer": null, "gamma_regularizer": null, "beta_constraint": null, "gamma_constraint": null}, "name": "block6a_expand_bn", "inbound_nodes": [[["block6a_expand_conv", 0, 0, {}]]]}, {"class_name": "Activation", "config": {"name": "block6a_expand_activation", "trainable": true, "dtype": "float32", "activation": "swish"}, "name": "block6a_expand_activation", "inbound_nodes": [[["block6a_expand_bn", 0, 0, {}]]]}, {"class_name": "DepthwiseConv2D", "config": {"name": "block6a_dwconv2", "trainable": true, "dtype": "float32", "kernel_size": [3, 3], "strides": [2, 2], "padding": "same", "data_format": "channels_last", "dilation_rate": [1, 1], "groups": 1, "activation": "linear", "use_bias": false, "bias_initializer": {"class_name": "Zeros", "config": {}}, "bias_regularizer": null, "activity_regularizer": null, "bias_constraint": null, "depth_multiplier": 1, "depthwise_initializer": {"class_name": "VarianceScaling", "config": {"scale": 2.0, "mode": "fan_out", "distribution": "truncated_normal", "seed": null}}, "depthwise_regularizer": null, "depthwise_constraint": null}, "name": "block6a_dwconv2", "inbound_nodes": [[["block6a_expand_activation", 0, 0, {}]]]}, {"class_name": "BatchNormalization", "config": {"name": "block6a_bn", "trainable": true, "dtype": "float32", "axis": [3], "momentum": 0.9, "epsilon": 0.001, "center": true, "scale": true, "beta_initializer": {"class_name": "Zeros", "config": {}}, "gamma_initializer": {"class_name": "Ones", "config": {}}, "moving_mean_initializer": {"class_name": "Zeros", "config": {}}, "moving_variance_initializer": {"class_name": "Ones", "config": {}}, "beta_regularizer": null, "gamma_regularizer": null, "beta_constraint": null, "gamma_constraint": null}, "name": "block6a_bn", "inbound_nodes": [[["block6a_dwconv2", 0, 0, {}]]]}, {"class_name": "Activation", "config": {"name": "block6a_activation", "trainable": true, "dtype": "float32", "activation": "swish"}, "name": "block6a_activation", "inbound_nodes": [[["block6a_bn", 0, 0, {}]]]}, {"class_name": "GlobalAveragePooling2D", "config": {"name": "block6a_se_squeeze", "trainable": true, "dtype": "float32", "data_format": "channels_last", "keepdims": false}, "name": "block6a_se_squeeze", "inbound_nodes": [[["block6a_activation", 0, 0, {}]]]}, {"class_name": "Reshape", "config": {"name": "block6a_se_reshape", "trainable": true, "dtype": "float32", "target_shape": [1, 1, 672]}, "name": "block6a_se_reshape", "inbound_nodes": [[["block6a_se_squeeze", 0, 0, {}]]]}, {"class_name": "Conv2D", "config": {"name": "block6a_se_reduce", "trainable": true, "dtype": "float32", "filters": 28, "kernel_size": [1, 1], "strides": [1, 1], "padding": "same", "data_format": "channels_last", "dilation_rate": [1, 1], "groups": 1, "activation": "swish", "use_bias": true, "kernel_initializer": {"class_name": "VarianceScaling", "config": {"scale": 2.0, "mode": "fan_out", "distribution": "truncated_normal", "seed": null}}, "bias_initializer": {"class_name": "Zeros", "config": {}}, "kernel_regularizer": null, "bias_regularizer": null, "activity_regularizer": null, "kernel_constraint": null, "bias_constraint": null}, "name": "block6a_se_reduce", "inbound_nodes": [[["block6a_se_reshape", 0, 0, {}]]]}, {"class_name": "Conv2D", "config": {"name": "block6a_se_expand", "trainable": true, "dtype": "float32", "filters": 672, "kernel_size": [1, 1], "strides": [1, 1], "padding": "same", "data_format": "channels_last", "dilation_rate": [1, 1], "groups": 1, "activation": "sigmoid", "use_bias": true, "kernel_initializer": {"class_name": "VarianceScaling", "config": {"scale": 2.0, "mode": "fan_out", "distribution": "truncated_normal", "seed": null}}, "bias_initializer": {"class_name": "Zeros", "config": {}}, "kernel_regularizer": null, "bias_regularizer": null, "activity_regularizer": null, "kernel_constraint": null, "bias_constraint": null}, "name": "block6a_se_expand", "inbound_nodes": [[["block6a_se_reduce", 0, 0, {}]]]}, {"class_name": "Multiply", "config": {"name": "block6a_se_excite", "trainable": true, "dtype": "float32"}, "name": "block6a_se_excite", "inbound_nodes": [[["block6a_activation", 0, 0, {}], ["block6a_se_expand", 0, 0, {}]]]}, {"class_name": "Conv2D", "config": {"name": "block6a_project_conv", "trainable": true, "dtype": "float32", "filters": 192, "kernel_size": [1, 1], "strides": [1, 1], "padding": "same", "data_format": "channels_last", "dilation_rate": [1, 1], "groups": 1, "activation": "linear", "use_bias": false, "kernel_initializer": {"class_name": "VarianceScaling", "config": {"scale": 2.0, "mode": "fan_out", "distribution": "truncated_normal", "seed": null}}, "bias_initializer": {"class_name": "Zeros", "config": {}}, "kernel_regularizer": null, "bias_regularizer": null, "activity_regularizer": null, "kernel_constraint": null, "bias_constraint": null}, "name": "block6a_project_conv", "inbound_nodes": [[["block6a_se_excite", 0, 0, {}]]]}, {"class_name": "BatchNormalization", "config": {"name": "block6a_project_bn", "trainable": true, "dtype": "float32", "axis": [3], "momentum": 0.9, "epsilon": 0.001, "center": true, "scale": true, "beta_initializer": {"class_name": "Zeros", "config": {}}, "gamma_initializer": {"class_name": "Ones", "config": {}}, "moving_mean_initializer": {"class_name": "Zeros", "config": {}}, "moving_variance_initializer": {"class_name": "Ones", "config": {}}, "beta_regularizer": null, "gamma_regularizer": null, "beta_constraint": null, "gamma_constraint": null}, "name": "block6a_project_bn", "inbound_nodes": [[["block6a_project_conv", 0, 0, {}]]]}, {"class_name": "Conv2D", "config": {"name": "block6b_expand_conv", "trainable": true, "dtype": "float32", "filters": 1152, "kernel_size": [1, 1], "strides": [1, 1], "padding": "same", "data_format": "channels_last", "dilation_rate": [1, 1], "groups": 1, "activation": "linear", "use_bias": false, "kernel_initializer": {"class_name": "VarianceScaling", "config": {"scale": 2.0, "mode": "fan_out", "distribution": "truncated_normal", "seed": null}}, "bias_initializer": {"class_name": "Zeros", "config": {}}, "kernel_regularizer": null, "bias_regularizer": null, "activity_regularizer": null, "kernel_constraint": null, "bias_constraint": null}, "name": "block6b_expand_conv", "inbound_nodes": [[["block6a_project_bn", 0, 0, {}]]]}, {"class_name": "BatchNormalization", "config": {"name": "block6b_expand_bn", "trainable": true, "dtype": "float32", "axis": [3], "momentum": 0.9, "epsilon": 0.001, "center": true, "scale": true, "beta_initializer": {"class_name": "Zeros", "config": {}}, "gamma_initializer": {"class_name": "Ones", "config": {}}, "moving_mean_initializer": {"class_name": "Zeros", "config": {}}, "moving_variance_initializer": {"class_name": "Ones", "config": {}}, "beta_regularizer": null, "gamma_regularizer": null, "beta_constraint": null, "gamma_constraint": null}, "name": "block6b_expand_bn", "inbound_nodes": [[["block6b_expand_conv", 0, 0, {}]]]}, {"class_name": "Activation", "config": {"name": "block6b_expand_activation", "trainable": true, "dtype": "float32", "activation": "swish"}, "name": "block6b_expand_activation", "inbound_nodes": [[["block6b_expand_bn", 0, 0, {}]]]}, {"class_name": "DepthwiseConv2D", "config": {"name": "block6b_dwconv2", "trainable": true, "dtype": "float32", "kernel_size": [3, 3], "strides": [1, 1], "padding": "same", "data_format": "channels_last", "dilation_rate": [1, 1], "groups": 1, "activation": "linear", "use_bias": false, "bias_initializer": {"class_name": "Zeros", "config": {}}, "bias_regularizer": null, "activity_regularizer": null, "bias_constraint": null, "depth_multiplier": 1, "depthwise_initializer": {"class_name": "VarianceScaling", "config": {"scale": 2.0, "mode": "fan_out", "distribution": "truncated_normal", "seed": null}}, "depthwise_regularizer": null, "depthwise_constraint": null}, "name": "block6b_dwconv2", "inbound_nodes": [[["block6b_expand_activation", 0, 0, {}]]]}, {"class_name": "BatchNormalization", "config": {"name": "block6b_bn", "trainable": true, "dtype": "float32", "axis": [3], "momentum": 0.9, "epsilon": 0.001, "center": true, "scale": true, "beta_initializer": {"class_name": "Zeros", "config": {}}, "gamma_initializer": {"class_name": "Ones", "config": {}}, "moving_mean_initializer": {"class_name": "Zeros", "config": {}}, "moving_variance_initializer": {"class_name": "Ones", "config": {}}, "beta_regularizer": null, "gamma_regularizer": null, "beta_constraint": null, "gamma_constraint": null}, "name": "block6b_bn", "inbound_nodes": [[["block6b_dwconv2", 0, 0, {}]]]}, {"class_name": "Activation", "config": {"name": "block6b_activation", "trainable": true, "dtype": "float32", "activation": "swish"}, "name": "block6b_activation", "inbound_nodes": [[["block6b_bn", 0, 0, {}]]]}, {"class_name": "GlobalAveragePooling2D", "config": {"name": "block6b_se_squeeze", "trainable": true, "dtype": "float32", "data_format": "channels_last", "keepdims": false}, "name": "block6b_se_squeeze", "inbound_nodes": [[["block6b_activation", 0, 0, {}]]]}, {"class_name": "Reshape", "config": {"name": "block6b_se_reshape", "trainable": true, "dtype": "float32", "target_shape": [1, 1, 1152]}, "name": "block6b_se_reshape", "inbound_nodes": [[["block6b_se_squeeze", 0, 0, {}]]]}, {"class_name": "Conv2D", "config": {"name": "block6b_se_reduce", "trainable": true, "dtype": "float32", "filters": 48, "kernel_size": [1, 1], "strides": [1, 1], "padding": "same", "data_format": "channels_last", "dilation_rate": [1, 1], "groups": 1, "activation": "swish", "use_bias": true, "kernel_initializer": {"class_name": "VarianceScaling", "config": {"scale": 2.0, "mode": "fan_out", "distribution": "truncated_normal", "seed": null}}, "bias_initializer": {"class_name": "Zeros", "config": {}}, "kernel_regularizer": null, "bias_regularizer": null, "activity_regularizer": null, "kernel_constraint": null, "bias_constraint": null}, "name": "block6b_se_reduce", "inbound_nodes": [[["block6b_se_reshape", 0, 0, {}]]]}, {"class_name": "Conv2D", "config": {"name": "block6b_se_expand", "trainable": true, "dtype": "float32", "filters": 1152, "kernel_size": [1, 1], "strides": [1, 1], "padding": "same", "data_format": "channels_last", "dilation_rate": [1, 1], "groups": 1, "activation": "sigmoid", "use_bias": true, "kernel_initializer": {"class_name": "VarianceScaling", "config": {"scale": 2.0, "mode": "fan_out", "distribution": "truncated_normal", "seed": null}}, "bias_initializer": {"class_name": "Zeros", "config": {}}, "kernel_regularizer": null, "bias_regularizer": null, "activity_regularizer": null, "kernel_constraint": null, "bias_constraint": null}, "name": "block6b_se_expand", "inbound_nodes": [[["block6b_se_reduce", 0, 0, {}]]]}, {"class_name": "Multiply", "config": {"name": "block6b_se_excite", "trainable": true, "dtype": "float32"}, "name": "block6b_se_excite", "inbound_nodes": [[["block6b_activation", 0, 0, {}], ["block6b_se_expand", 0, 0, {}]]]}, {"class_name": "Conv2D", "config": {"name": "block6b_project_conv", "trainable": true, "dtype": "float32", "filters": 192, "kernel_size": [1, 1], "strides": [1, 1], "padding": "same", "data_format": "channels_last", "dilation_rate": [1, 1], "groups": 1, "activation": "linear", "use_bias": false, "kernel_initializer": {"class_name": "VarianceScaling", "config": {"scale": 2.0, "mode": "fan_out", "distribution": "truncated_normal", "seed": null}}, "bias_initializer": {"class_name": "Zeros", "config": {}}, "kernel_regularizer": null, "bias_regularizer": null, "activity_regularizer": null, "kernel_constraint": null, "bias_constraint": null}, "name": "block6b_project_conv", "inbound_nodes": [[["block6b_se_excite", 0, 0, {}]]]}, {"class_name": "BatchNormalization", "config": {"name": "block6b_project_bn", "trainable": true, "dtype": "float32", "axis": [3], "momentum": 0.9, "epsilon": 0.001, "center": true, "scale": true, "beta_initializer": {"class_name": "Zeros", "config": {}}, "gamma_initializer": {"class_name": "Ones", "config": {}}, "moving_mean_initializer": {"class_name": "Zeros", "config": {}}, "moving_variance_initializer": {"class_name": "Ones", "config": {}}, "beta_regularizer": null, "gamma_regularizer": null, "beta_constraint": null, "gamma_constraint": null}, "name": "block6b_project_bn", "inbound_nodes": [[["block6b_project_conv", 0, 0, {}]]]}, {"class_name": "Add", "config": {"name": "block6b_add", "trainable": true, "dtype": "float32"}, "name": "block6b_add", "inbound_nodes": [[["block6b_project_bn", 0, 0, {}], ["block6a_project_bn", 0, 0, {}]]]}, {"class_name": "Conv2D", "config": {"name": "block6c_expand_conv", "trainable": true, "dtype": "float32", "filters": 1152, "kernel_size": [1, 1], "strides": [1, 1], "padding": "same", "data_format": "channels_last", "dilation_rate": [1, 1], "groups": 1, "activation": "linear", "use_bias": false, "kernel_initializer": {"class_name": "VarianceScaling", "config": {"scale": 2.0, "mode": "fan_out", "distribution": "truncated_normal", "seed": null}}, "bias_initializer": {"class_name": "Zeros", "config": {}}, "kernel_regularizer": null, "bias_regularizer": null, "activity_regularizer": null, "kernel_constraint": null, "bias_constraint": null}, "name": "block6c_expand_conv", "inbound_nodes": [[["block6b_add", 0, 0, {}]]]}, {"class_name": "BatchNormalization", "config": {"name": "block6c_expand_bn", "trainable": true, "dtype": "float32", "axis": [3], "momentum": 0.9, "epsilon": 0.001, "center": true, "scale": true, "beta_initializer": {"class_name": "Zeros", "config": {}}, "gamma_initializer": {"class_name": "Ones", "config": {}}, "moving_mean_initializer": {"class_name": "Zeros", "config": {}}, "moving_variance_initializer": {"class_name": "Ones", "config": {}}, "beta_regularizer": null, "gamma_regularizer": null, "beta_constraint": null, "gamma_constraint": null}, "name": "block6c_expand_bn", "inbound_nodes": [[["block6c_expand_conv", 0, 0, {}]]]}, {"class_name": "Activation", "config": {"name": "block6c_expand_activation", "trainable": true, "dtype": "float32", "activation": "swish"}, "name": "block6c_expand_activation", "inbound_nodes": [[["block6c_expand_bn", 0, 0, {}]]]}, {"class_name": "DepthwiseConv2D", "config": {"name": "block6c_dwconv2", "trainable": true, "dtype": "float32", "kernel_size": [3, 3], "strides": [1, 1], "padding": "same", "data_format": "channels_last", "dilation_rate": [1, 1], "groups": 1, "activation": "linear", "use_bias": false, "bias_initializer": {"class_name": "Zeros", "config": {}}, "bias_regularizer": null, "activity_regularizer": null, "bias_constraint": null, "depth_multiplier": 1, "depthwise_initializer": {"class_name": "VarianceScaling", "config": {"scale": 2.0, "mode": "fan_out", "distribution": "truncated_normal", "seed": null}}, "depthwise_regularizer": null, "depthwise_constraint": null}, "name": "block6c_dwconv2", "inbound_nodes": [[["block6c_expand_activation", 0, 0, {}]]]}, {"class_name": "BatchNormalization", "config": {"name": "block6c_bn", "trainable": true, "dtype": "float32", "axis": [3], "momentum": 0.9, "epsilon": 0.001, "center": true, "scale": true, "beta_initializer": {"class_name": "Zeros", "config": {}}, "gamma_initializer": {"class_name": "Ones", "config": {}}, "moving_mean_initializer": {"class_name": "Zeros", "config": {}}, "moving_variance_initializer": {"class_name": "Ones", "config": {}}, "beta_regularizer": null, "gamma_regularizer": null, "beta_constraint": null, "gamma_constraint": null}, "name": "block6c_bn", "inbound_nodes": [[["block6c_dwconv2", 0, 0, {}]]]}, {"class_name": "Activation", "config": {"name": "block6c_activation", "trainable": true, "dtype": "float32", "activation": "swish"}, "name": "block6c_activation", "inbound_nodes": [[["block6c_bn", 0, 0, {}]]]}, {"class_name": "GlobalAveragePooling2D", "config": {"name": "block6c_se_squeeze", "trainable": true, "dtype": "float32", "data_format": "channels_last", "keepdims": false}, "name": "block6c_se_squeeze", "inbound_nodes": [[["block6c_activation", 0, 0, {}]]]}, {"class_name": "Reshape", "config": {"name": "block6c_se_reshape", "trainable": true, "dtype": "float32", "target_shape": [1, 1, 1152]}, "name": "block6c_se_reshape", "inbound_nodes": [[["block6c_se_squeeze", 0, 0, {}]]]}, {"class_name": "Conv2D", "config": {"name": "block6c_se_reduce", "trainable": true, "dtype": "float32", "filters": 48, "kernel_size": [1, 1], "strides": [1, 1], "padding": "same", "data_format": "channels_last", "dilation_rate": [1, 1], "groups": 1, "activation": "swish", "use_bias": true, "kernel_initializer": {"class_name": "VarianceScaling", "config": {"scale": 2.0, "mode": "fan_out", "distribution": "truncated_normal", "seed": null}}, "bias_initializer": {"class_name": "Zeros", "config": {}}, "kernel_regularizer": null, "bias_regularizer": null, "activity_regularizer": null, "kernel_constraint": null, "bias_constraint": null}, "name": "block6c_se_reduce", "inbound_nodes": [[["block6c_se_reshape", 0, 0, {}]]]}, {"class_name": "Conv2D", "config": {"name": "block6c_se_expand", "trainable": true, "dtype": "float32", "filters": 1152, "kernel_size": [1, 1], "strides": [1, 1], "padding": "same", "data_format": "channels_last", "dilation_rate": [1, 1], "groups": 1, "activation": "sigmoid", "use_bias": true, "kernel_initializer": {"class_name": "VarianceScaling", "config": {"scale": 2.0, "mode": "fan_out", "distribution": "truncated_normal", "seed": null}}, "bias_initializer": {"class_name": "Zeros", "config": {}}, "kernel_regularizer": null, "bias_regularizer": null, "activity_regularizer": null, "kernel_constraint": null, "bias_constraint": null}, "name": "block6c_se_expand", "inbound_nodes": [[["block6c_se_reduce", 0, 0, {}]]]}, {"class_name": "Multiply", "config": {"name": "block6c_se_excite", "trainable": true, "dtype": "float32"}, "name": "block6c_se_excite", "inbound_nodes": [[["block6c_activation", 0, 0, {}], ["block6c_se_expand", 0, 0, {}]]]}, {"class_name": "Conv2D", "config": {"name": "block6c_project_conv", "trainable": true, "dtype": "float32", "filters": 192, "kernel_size": [1, 1], "strides": [1, 1], "padding": "same", "data_format": "channels_last", "dilation_rate": [1, 1], "groups": 1, "activation": "linear", "use_bias": false, "kernel_initializer": {"class_name": "VarianceScaling", "config": {"scale": 2.0, "mode": "fan_out", "distribution": "truncated_normal", "seed": null}}, "bias_initializer": {"class_name": "Zeros", "config": {}}, "kernel_regularizer": null, "bias_regularizer": null, "activity_regularizer": null, "kernel_constraint": null, "bias_constraint": null}, "name": "block6c_project_conv", "inbound_nodes": [[["block6c_se_excite", 0, 0, {}]]]}, {"class_name": "BatchNormalization", "config": {"name": "block6c_project_bn", "trainable": true, "dtype": "float32", "axis": [3], "momentum": 0.9, "epsilon": 0.001, "center": true, "scale": true, "beta_initializer": {"class_name": "Zeros", "config": {}}, "gamma_initializer": {"class_name": "Ones", "config": {}}, "moving_mean_initializer": {"class_name": "Zeros", "config": {}}, "moving_variance_initializer": {"class_name": "Ones", "config": {}}, "beta_regularizer": null, "gamma_regularizer": null, "beta_constraint": null, "gamma_constraint": null}, "name": "block6c_project_bn", "inbound_nodes": [[["block6c_project_conv", 0, 0, {}]]]}, {"class_name": "Add", "config": {"name": "block6c_add", "trainable": true, "dtype": "float32"}, "name": "block6c_add", "inbound_nodes": [[["block6c_project_bn", 0, 0, {}], ["block6b_add", 0, 0, {}]]]}, {"class_name": "Conv2D", "config": {"name": "block6d_expand_conv", "trainable": true, "dtype": "float32", "filters": 1152, "kernel_size": [1, 1], "strides": [1, 1], "padding": "same", "data_format": "channels_last", "dilation_rate": [1, 1], "groups": 1, "activation": "linear", "use_bias": false, "kernel_initializer": {"class_name": "VarianceScaling", "config": {"scale": 2.0, "mode": "fan_out", "distribution": "truncated_normal", "seed": null}}, "bias_initializer": {"class_name": "Zeros", "config": {}}, "kernel_regularizer": null, "bias_regularizer": null, "activity_regularizer": null, "kernel_constraint": null, "bias_constraint": null}, "name": "block6d_expand_conv", "inbound_nodes": [[["block6c_add", 0, 0, {}]]]}, {"class_name": "BatchNormalization", "config": {"name": "block6d_expand_bn", "trainable": true, "dtype": "float32", "axis": [3], "momentum": 0.9, "epsilon": 0.001, "center": true, "scale": true, "beta_initializer": {"class_name": "Zeros", "config": {}}, "gamma_initializer": {"class_name": "Ones", "config": {}}, "moving_mean_initializer": {"class_name": "Zeros", "config": {}}, "moving_variance_initializer": {"class_name": "Ones", "config": {}}, "beta_regularizer": null, "gamma_regularizer": null, "beta_constraint": null, "gamma_constraint": null}, "name": "block6d_expand_bn", "inbound_nodes": [[["block6d_expand_conv", 0, 0, {}]]]}, {"class_name": "Activation", "config": {"name": "block6d_expand_activation", "trainable": true, "dtype": "float32", "activation": "swish"}, "name": "block6d_expand_activation", "inbound_nodes": [[["block6d_expand_bn", 0, 0, {}]]]}, {"class_name": "DepthwiseConv2D", "config": {"name": "block6d_dwconv2", "trainable": true, "dtype": "float32", "kernel_size": [3, 3], "strides": [1, 1], "padding": "same", "data_format": "channels_last", "dilation_rate": [1, 1], "groups": 1, "activation": "linear", "use_bias": false, "bias_initializer": {"class_name": "Zeros", "config": {}}, "bias_regularizer": null, "activity_regularizer": null, "bias_constraint": null, "depth_multiplier": 1, "depthwise_initializer": {"class_name": "VarianceScaling", "config": {"scale": 2.0, "mode": "fan_out", "distribution": "truncated_normal", "seed": null}}, "depthwise_regularizer": null, "depthwise_constraint": null}, "name": "block6d_dwconv2", "inbound_nodes": [[["block6d_expand_activation", 0, 0, {}]]]}, {"class_name": "BatchNormalization", "config": {"name": "block6d_bn", "trainable": true, "dtype": "float32", "axis": [3], "momentum": 0.9, "epsilon": 0.001, "center": true, "scale": true, "beta_initializer": {"class_name": "Zeros", "config": {}}, "gamma_initializer": {"class_name": "Ones", "config": {}}, "moving_mean_initializer": {"class_name": "Zeros", "config": {}}, "moving_variance_initializer": {"class_name": "Ones", "config": {}}, "beta_regularizer": null, "gamma_regularizer": null, "beta_constraint": null, "gamma_constraint": null}, "name": "block6d_bn", "inbound_nodes": [[["block6d_dwconv2", 0, 0, {}]]]}, {"class_name": "Activation", "config": {"name": "block6d_activation", "trainable": true, "dtype": "float32", "activation": "swish"}, "name": "block6d_activation", "inbound_nodes": [[["block6d_bn", 0, 0, {}]]]}, {"class_name": "GlobalAveragePooling2D", "config": {"name": "block6d_se_squeeze", "trainable": true, "dtype": "float32", "data_format": "channels_last", "keepdims": false}, "name": "block6d_se_squeeze", "inbound_nodes": [[["block6d_activation", 0, 0, {}]]]}, {"class_name": "Reshape", "config": {"name": "block6d_se_reshape", "trainable": true, "dtype": "float32", "target_shape": [1, 1, 1152]}, "name": "block6d_se_reshape", "inbound_nodes": [[["block6d_se_squeeze", 0, 0, {}]]]}, {"class_name": "Conv2D", "config": {"name": "block6d_se_reduce", "trainable": true, "dtype": "float32", "filters": 48, "kernel_size": [1, 1], "strides": [1, 1], "padding": "same", "data_format": "channels_last", "dilation_rate": [1, 1], "groups": 1, "activation": "swish", "use_bias": true, "kernel_initializer": {"class_name": "VarianceScaling", "config": {"scale": 2.0, "mode": "fan_out", "distribution": "truncated_normal", "seed": null}}, "bias_initializer": {"class_name": "Zeros", "config": {}}, "kernel_regularizer": null, "bias_regularizer": null, "activity_regularizer": null, "kernel_constraint": null, "bias_constraint": null}, "name": "block6d_se_reduce", "inbound_nodes": [[["block6d_se_reshape", 0, 0, {}]]]}, {"class_name": "Conv2D", "config": {"name": "block6d_se_expand", "trainable": true, "dtype": "float32", "filters": 1152, "kernel_size": [1, 1], "strides": [1, 1], "padding": "same", "data_format": "channels_last", "dilation_rate": [1, 1], "groups": 1, "activation": "sigmoid", "use_bias": true, "kernel_initializer": {"class_name": "VarianceScaling", "config": {"scale": 2.0, "mode": "fan_out", "distribution": "truncated_normal", "seed": null}}, "bias_initializer": {"class_name": "Zeros", "config": {}}, "kernel_regularizer": null, "bias_regularizer": null, "activity_regularizer": null, "kernel_constraint": null, "bias_constraint": null}, "name": "block6d_se_expand", "inbound_nodes": [[["block6d_se_reduce", 0, 0, {}]]]}, {"class_name": "Multiply", "config": {"name": "block6d_se_excite", "trainable": true, "dtype": "float32"}, "name": "block6d_se_excite", "inbound_nodes": [[["block6d_activation", 0, 0, {}], ["block6d_se_expand", 0, 0, {}]]]}, {"class_name": "Conv2D", "config": {"name": "block6d_project_conv", "trainable": true, "dtype": "float32", "filters": 192, "kernel_size": [1, 1], "strides": [1, 1], "padding": "same", "data_format": "channels_last", "dilation_rate": [1, 1], "groups": 1, "activation": "linear", "use_bias": false, "kernel_initializer": {"class_name": "VarianceScaling", "config": {"scale": 2.0, "mode": "fan_out", "distribution": "truncated_normal", "seed": null}}, "bias_initializer": {"class_name": "Zeros", "config": {}}, "kernel_regularizer": null, "bias_regularizer": null, "activity_regularizer": null, "kernel_constraint": null, "bias_constraint": null}, "name": "block6d_project_conv", "inbound_nodes": [[["block6d_se_excite", 0, 0, {}]]]}, {"class_name": "BatchNormalization", "config": {"name": "block6d_project_bn", "trainable": true, "dtype": "float32", "axis": [3], "momentum": 0.9, "epsilon": 0.001, "center": true, "scale": true, "beta_initializer": {"class_name": "Zeros", "config": {}}, "gamma_initializer": {"class_name": "Ones", "config": {}}, "moving_mean_initializer": {"class_name": "Zeros", "config": {}}, "moving_variance_initializer": {"class_name": "Ones", "config": {}}, "beta_regularizer": null, "gamma_regularizer": null, "beta_constraint": null, "gamma_constraint": null}, "name": "block6d_project_bn", "inbound_nodes": [[["block6d_project_conv", 0, 0, {}]]]}, {"class_name": "Add", "config": {"name": "block6d_add", "trainable": true, "dtype": "float32"}, "name": "block6d_add", "inbound_nodes": [[["block6d_project_bn", 0, 0, {}], ["block6c_add", 0, 0, {}]]]}, {"class_name": "Conv2D", "config": {"name": "block6e_expand_conv", "trainable": true, "dtype": "float32", "filters": 1152, "kernel_size": [1, 1], "strides": [1, 1], "padding": "same", "data_format": "channels_last", "dilation_rate": [1, 1], "groups": 1, "activation": "linear", "use_bias": false, "kernel_initializer": {"class_name": "VarianceScaling", "config": {"scale": 2.0, "mode": "fan_out", "distribution": "truncated_normal", "seed": null}}, "bias_initializer": {"class_name": "Zeros", "config": {}}, "kernel_regularizer": null, "bias_regularizer": null, "activity_regularizer": null, "kernel_constraint": null, "bias_constraint": null}, "name": "block6e_expand_conv", "inbound_nodes": [[["block6d_add", 0, 0, {}]]]}, {"class_name": "BatchNormalization", "config": {"name": "block6e_expand_bn", "trainable": true, "dtype": "float32", "axis": [3], "momentum": 0.9, "epsilon": 0.001, "center": true, "scale": true, "beta_initializer": {"class_name": "Zeros", "config": {}}, "gamma_initializer": {"class_name": "Ones", "config": {}}, "moving_mean_initializer": {"class_name": "Zeros", "config": {}}, "moving_variance_initializer": {"class_name": "Ones", "config": {}}, "beta_regularizer": null, "gamma_regularizer": null, "beta_constraint": null, "gamma_constraint": null}, "name": "block6e_expand_bn", "inbound_nodes": [[["block6e_expand_conv", 0, 0, {}]]]}, {"class_name": "Activation", "config": {"name": "block6e_expand_activation", "trainable": true, "dtype": "float32", "activation": "swish"}, "name": "block6e_expand_activation", "inbound_nodes": [[["block6e_expand_bn", 0, 0, {}]]]}, {"class_name": "DepthwiseConv2D", "config": {"name": "block6e_dwconv2", "trainable": true, "dtype": "float32", "kernel_size": [3, 3], "strides": [1, 1], "padding": "same", "data_format": "channels_last", "dilation_rate": [1, 1], "groups": 1, "activation": "linear", "use_bias": false, "bias_initializer": {"class_name": "Zeros", "config": {}}, "bias_regularizer": null, "activity_regularizer": null, "bias_constraint": null, "depth_multiplier": 1, "depthwise_initializer": {"class_name": "VarianceScaling", "config": {"scale": 2.0, "mode": "fan_out", "distribution": "truncated_normal", "seed": null}}, "depthwise_regularizer": null, "depthwise_constraint": null}, "name": "block6e_dwconv2", "inbound_nodes": [[["block6e_expand_activation", 0, 0, {}]]]}, {"class_name": "BatchNormalization", "config": {"name": "block6e_bn", "trainable": true, "dtype": "float32", "axis": [3], "momentum": 0.9, "epsilon": 0.001, "center": true, "scale": true, "beta_initializer": {"class_name": "Zeros", "config": {}}, "gamma_initializer": {"class_name": "Ones", "config": {}}, "moving_mean_initializer": {"class_name": "Zeros", "config": {}}, "moving_variance_initializer": {"class_name": "Ones", "config": {}}, "beta_regularizer": null, "gamma_regularizer": null, "beta_constraint": null, "gamma_constraint": null}, "name": "block6e_bn", "inbound_nodes": [[["block6e_dwconv2", 0, 0, {}]]]}, {"class_name": "Activation", "config": {"name": "block6e_activation", "trainable": true, "dtype": "float32", "activation": "swish"}, "name": "block6e_activation", "inbound_nodes": [[["block6e_bn", 0, 0, {}]]]}, {"class_name": "GlobalAveragePooling2D", "config": {"name": "block6e_se_squeeze", "trainable": true, "dtype": "float32", "data_format": "channels_last", "keepdims": false}, "name": "block6e_se_squeeze", "inbound_nodes": [[["block6e_activation", 0, 0, {}]]]}, {"class_name": "Reshape", "config": {"name": "block6e_se_reshape", "trainable": true, "dtype": "float32", "target_shape": [1, 1, 1152]}, "name": "block6e_se_reshape", "inbound_nodes": [[["block6e_se_squeeze", 0, 0, {}]]]}, {"class_name": "Conv2D", "config": {"name": "block6e_se_reduce", "trainable": true, "dtype": "float32", "filters": 48, "kernel_size": [1, 1], "strides": [1, 1], "padding": "same", "data_format": "channels_last", "dilation_rate": [1, 1], "groups": 1, "activation": "swish", "use_bias": true, "kernel_initializer": {"class_name": "VarianceScaling", "config": {"scale": 2.0, "mode": "fan_out", "distribution": "truncated_normal", "seed": null}}, "bias_initializer": {"class_name": "Zeros", "config": {}}, "kernel_regularizer": null, "bias_regularizer": null, "activity_regularizer": null, "kernel_constraint": null, "bias_constraint": null}, "name": "block6e_se_reduce", "inbound_nodes": [[["block6e_se_reshape", 0, 0, {}]]]}, {"class_name": "Conv2D", "config": {"name": "block6e_se_expand", "trainable": true, "dtype": "float32", "filters": 1152, "kernel_size": [1, 1], "strides": [1, 1], "padding": "same", "data_format": "channels_last", "dilation_rate": [1, 1], "groups": 1, "activation": "sigmoid", "use_bias": true, "kernel_initializer": {"class_name": "VarianceScaling", "config": {"scale": 2.0, "mode": "fan_out", "distribution": "truncated_normal", "seed": null}}, "bias_initializer": {"class_name": "Zeros", "config": {}}, "kernel_regularizer": null, "bias_regularizer": null, "activity_regularizer": null, "kernel_constraint": null, "bias_constraint": null}, "name": "block6e_se_expand", "inbound_nodes": [[["block6e_se_reduce", 0, 0, {}]]]}, {"class_name": "Multiply", "config": {"name": "block6e_se_excite", "trainable": true, "dtype": "float32"}, "name": "block6e_se_excite", "inbound_nodes": [[["block6e_activation", 0, 0, {}], ["block6e_se_expand", 0, 0, {}]]]}, {"class_name": "Conv2D", "config": {"name": "block6e_project_conv", "trainable": true, "dtype": "float32", "filters": 192, "kernel_size": [1, 1], "strides": [1, 1], "padding": "same", "data_format": "channels_last", "dilation_rate": [1, 1], "groups": 1, "activation": "linear", "use_bias": false, "kernel_initializer": {"class_name": "VarianceScaling", "config": {"scale": 2.0, "mode": "fan_out", "distribution": "truncated_normal", "seed": null}}, "bias_initializer": {"class_name": "Zeros", "config": {}}, "kernel_regularizer": null, "bias_regularizer": null, "activity_regularizer": null, "kernel_constraint": null, "bias_constraint": null}, "name": "block6e_project_conv", "inbound_nodes": [[["block6e_se_excite", 0, 0, {}]]]}, {"class_name": "BatchNormalization", "config": {"name": "block6e_project_bn", "trainable": true, "dtype": "float32", "axis": [3], "momentum": 0.9, "epsilon": 0.001, "center": true, "scale": true, "beta_initializer": {"class_name": "Zeros", "config": {}}, "gamma_initializer": {"class_name": "Ones", "config": {}}, "moving_mean_initializer": {"class_name": "Zeros", "config": {}}, "moving_variance_initializer": {"class_name": "Ones", "config": {}}, "beta_regularizer": null, "gamma_regularizer": null, "beta_constraint": null, "gamma_constraint": null}, "name": "block6e_project_bn", "inbound_nodes": [[["block6e_project_conv", 0, 0, {}]]]}, {"class_name": "Add", "config": {"name": "block6e_add", "trainable": true, "dtype": "float32"}, "name": "block6e_add", "inbound_nodes": [[["block6e_project_bn", 0, 0, {}], ["block6d_add", 0, 0, {}]]]}, {"class_name": "Conv2D", "config": {"name": "block6f_expand_conv", "trainable": true, "dtype": "float32", "filters": 1152, "kernel_size": [1, 1], "strides": [1, 1], "padding": "same", "data_format": "channels_last", "dilation_rate": [1, 1], "groups": 1, "activation": "linear", "use_bias": false, "kernel_initializer": {"class_name": "VarianceScaling", "config": {"scale": 2.0, "mode": "fan_out", "distribution": "truncated_normal", "seed": null}}, "bias_initializer": {"class_name": "Zeros", "config": {}}, "kernel_regularizer": null, "bias_regularizer": null, "activity_regularizer": null, "kernel_constraint": null, "bias_constraint": null}, "name": "block6f_expand_conv", "inbound_nodes": [[["block6e_add", 0, 0, {}]]]}, {"class_name": "BatchNormalization", "config": {"name": "block6f_expand_bn", "trainable": true, "dtype": "float32", "axis": [3], "momentum": 0.9, "epsilon": 0.001, "center": true, "scale": true, "beta_initializer": {"class_name": "Zeros", "config": {}}, "gamma_initializer": {"class_name": "Ones", "config": {}}, "moving_mean_initializer": {"class_name": "Zeros", "config": {}}, "moving_variance_initializer": {"class_name": "Ones", "config": {}}, "beta_regularizer": null, "gamma_regularizer": null, "beta_constraint": null, "gamma_constraint": null}, "name": "block6f_expand_bn", "inbound_nodes": [[["block6f_expand_conv", 0, 0, {}]]]}, {"class_name": "Activation", "config": {"name": "block6f_expand_activation", "trainable": true, "dtype": "float32", "activation": "swish"}, "name": "block6f_expand_activation", "inbound_nodes": [[["block6f_expand_bn", 0, 0, {}]]]}, {"class_name": "DepthwiseConv2D", "config": {"name": "block6f_dwconv2", "trainable": true, "dtype": "float32", "kernel_size": [3, 3], "strides": [1, 1], "padding": "same", "data_format": "channels_last", "dilation_rate": [1, 1], "groups": 1, "activation": "linear", "use_bias": false, "bias_initializer": {"class_name": "Zeros", "config": {}}, "bias_regularizer": null, "activity_regularizer": null, "bias_constraint": null, "depth_multiplier": 1, "depthwise_initializer": {"class_name": "VarianceScaling", "config": {"scale": 2.0, "mode": "fan_out", "distribution": "truncated_normal", "seed": null}}, "depthwise_regularizer": null, "depthwise_constraint": null}, "name": "block6f_dwconv2", "inbound_nodes": [[["block6f_expand_activation", 0, 0, {}]]]}, {"class_name": "BatchNormalization", "config": {"name": "block6f_bn", "trainable": true, "dtype": "float32", "axis": [3], "momentum": 0.9, "epsilon": 0.001, "center": true, "scale": true, "beta_initializer": {"class_name": "Zeros", "config": {}}, "gamma_initializer": {"class_name": "Ones", "config": {}}, "moving_mean_initializer": {"class_name": "Zeros", "config": {}}, "moving_variance_initializer": {"class_name": "Ones", "config": {}}, "beta_regularizer": null, "gamma_regularizer": null, "beta_constraint": null, "gamma_constraint": null}, "name": "block6f_bn", "inbound_nodes": [[["block6f_dwconv2", 0, 0, {}]]]}, {"class_name": "Activation", "config": {"name": "block6f_activation", "trainable": true, "dtype": "float32", "activation": "swish"}, "name": "block6f_activation", "inbound_nodes": [[["block6f_bn", 0, 0, {}]]]}, {"class_name": "GlobalAveragePooling2D", "config": {"name": "block6f_se_squeeze", "trainable": true, "dtype": "float32", "data_format": "channels_last", "keepdims": false}, "name": "block6f_se_squeeze", "inbound_nodes": [[["block6f_activation", 0, 0, {}]]]}, {"class_name": "Reshape", "config": {"name": "block6f_se_reshape", "trainable": true, "dtype": "float32", "target_shape": [1, 1, 1152]}, "name": "block6f_se_reshape", "inbound_nodes": [[["block6f_se_squeeze", 0, 0, {}]]]}, {"class_name": "Conv2D", "config": {"name": "block6f_se_reduce", "trainable": true, "dtype": "float32", "filters": 48, "kernel_size": [1, 1], "strides": [1, 1], "padding": "same", "data_format": "channels_last", "dilation_rate": [1, 1], "groups": 1, "activation": "swish", "use_bias": true, "kernel_initializer": {"class_name": "VarianceScaling", "config": {"scale": 2.0, "mode": "fan_out", "distribution": "truncated_normal", "seed": null}}, "bias_initializer": {"class_name": "Zeros", "config": {}}, "kernel_regularizer": null, "bias_regularizer": null, "activity_regularizer": null, "kernel_constraint": null, "bias_constraint": null}, "name": "block6f_se_reduce", "inbound_nodes": [[["block6f_se_reshape", 0, 0, {}]]]}, {"class_name": "Conv2D", "config": {"name": "block6f_se_expand", "trainable": true, "dtype": "float32", "filters": 1152, "kernel_size": [1, 1], "strides": [1, 1], "padding": "same", "data_format": "channels_last", "dilation_rate": [1, 1], "groups": 1, "activation": "sigmoid", "use_bias": true, "kernel_initializer": {"class_name": "VarianceScaling", "config": {"scale": 2.0, "mode": "fan_out", "distribution": "truncated_normal", "seed": null}}, "bias_initializer": {"class_name": "Zeros", "config": {}}, "kernel_regularizer": null, "bias_regularizer": null, "activity_regularizer": null, "kernel_constraint": null, "bias_constraint": null}, "name": "block6f_se_expand", "inbound_nodes": [[["block6f_se_reduce", 0, 0, {}]]]}, {"class_name": "Multiply", "config": {"name": "block6f_se_excite", "trainable": true, "dtype": "float32"}, "name": "block6f_se_excite", "inbound_nodes": [[["block6f_activation", 0, 0, {}], ["block6f_se_expand", 0, 0, {}]]]}, {"class_name": "Conv2D", "config": {"name": "block6f_project_conv", "trainable": true, "dtype": "float32", "filters": 192, "kernel_size": [1, 1], "strides": [1, 1], "padding": "same", "data_format": "channels_last", "dilation_rate": [1, 1], "groups": 1, "activation": "linear", "use_bias": false, "kernel_initializer": {"class_name": "VarianceScaling", "config": {"scale": 2.0, "mode": "fan_out", "distribution": "truncated_normal", "seed": null}}, "bias_initializer": {"class_name": "Zeros", "config": {}}, "kernel_regularizer": null, "bias_regularizer": null, "activity_regularizer": null, "kernel_constraint": null, "bias_constraint": null}, "name": "block6f_project_conv", "inbound_nodes": [[["block6f_se_excite", 0, 0, {}]]]}, {"class_name": "BatchNormalization", "config": {"name": "block6f_project_bn", "trainable": true, "dtype": "float32", "axis": [3], "momentum": 0.9, "epsilon": 0.001, "center": true, "scale": true, "beta_initializer": {"class_name": "Zeros", "config": {}}, "gamma_initializer": {"class_name": "Ones", "config": {}}, "moving_mean_initializer": {"class_name": "Zeros", "config": {}}, "moving_variance_initializer": {"class_name": "Ones", "config": {}}, "beta_regularizer": null, "gamma_regularizer": null, "beta_constraint": null, "gamma_constraint": null}, "name": "block6f_project_bn", "inbound_nodes": [[["block6f_project_conv", 0, 0, {}]]]}, {"class_name": "Add", "config": {"name": "block6f_add", "trainable": true, "dtype": "float32"}, "name": "block6f_add", "inbound_nodes": [[["block6f_project_bn", 0, 0, {}], ["block6e_add", 0, 0, {}]]]}, {"class_name": "Conv2D", "config": {"name": "block6g_expand_conv", "trainable": true, "dtype": "float32", "filters": 1152, "kernel_size": [1, 1], "strides": [1, 1], "padding": "same", "data_format": "channels_last", "dilation_rate": [1, 1], "groups": 1, "activation": "linear", "use_bias": false, "kernel_initializer": {"class_name": "VarianceScaling", "config": {"scale": 2.0, "mode": "fan_out", "distribution": "truncated_normal", "seed": null}}, "bias_initializer": {"class_name": "Zeros", "config": {}}, "kernel_regularizer": null, "bias_regularizer": null, "activity_regularizer": null, "kernel_constraint": null, "bias_constraint": null}, "name": "block6g_expand_conv", "inbound_nodes": [[["block6f_add", 0, 0, {}]]]}, {"class_name": "BatchNormalization", "config": {"name": "block6g_expand_bn", "trainable": true, "dtype": "float32", "axis": [3], "momentum": 0.9, "epsilon": 0.001, "center": true, "scale": true, "beta_initializer": {"class_name": "Zeros", "config": {}}, "gamma_initializer": {"class_name": "Ones", "config": {}}, "moving_mean_initializer": {"class_name": "Zeros", "config": {}}, "moving_variance_initializer": {"class_name": "Ones", "config": {}}, "beta_regularizer": null, "gamma_regularizer": null, "beta_constraint": null, "gamma_constraint": null}, "name": "block6g_expand_bn", "inbound_nodes": [[["block6g_expand_conv", 0, 0, {}]]]}, {"class_name": "Activation", "config": {"name": "block6g_expand_activation", "trainable": true, "dtype": "float32", "activation": "swish"}, "name": "block6g_expand_activation", "inbound_nodes": [[["block6g_expand_bn", 0, 0, {}]]]}, {"class_name": "DepthwiseConv2D", "config": {"name": "block6g_dwconv2", "trainable": true, "dtype": "float32", "kernel_size": [3, 3], "strides": [1, 1], "padding": "same", "data_format": "channels_last", "dilation_rate": [1, 1], "groups": 1, "activation": "linear", "use_bias": false, "bias_initializer": {"class_name": "Zeros", "config": {}}, "bias_regularizer": null, "activity_regularizer": null, "bias_constraint": null, "depth_multiplier": 1, "depthwise_initializer": {"class_name": "VarianceScaling", "config": {"scale": 2.0, "mode": "fan_out", "distribution": "truncated_normal", "seed": null}}, "depthwise_regularizer": null, "depthwise_constraint": null}, "name": "block6g_dwconv2", "inbound_nodes": [[["block6g_expand_activation", 0, 0, {}]]]}, {"class_name": "BatchNormalization", "config": {"name": "block6g_bn", "trainable": true, "dtype": "float32", "axis": [3], "momentum": 0.9, "epsilon": 0.001, "center": true, "scale": true, "beta_initializer": {"class_name": "Zeros", "config": {}}, "gamma_initializer": {"class_name": "Ones", "config": {}}, "moving_mean_initializer": {"class_name": "Zeros", "config": {}}, "moving_variance_initializer": {"class_name": "Ones", "config": {}}, "beta_regularizer": null, "gamma_regularizer": null, "beta_constraint": null, "gamma_constraint": null}, "name": "block6g_bn", "inbound_nodes": [[["block6g_dwconv2", 0, 0, {}]]]}, {"class_name": "Activation", "config": {"name": "block6g_activation", "trainable": true, "dtype": "float32", "activation": "swish"}, "name": "block6g_activation", "inbound_nodes": [[["block6g_bn", 0, 0, {}]]]}, {"class_name": "GlobalAveragePooling2D", "config": {"name": "block6g_se_squeeze", "trainable": true, "dtype": "float32", "data_format": "channels_last", "keepdims": false}, "name": "block6g_se_squeeze", "inbound_nodes": [[["block6g_activation", 0, 0, {}]]]}, {"class_name": "Reshape", "config": {"name": "block6g_se_reshape", "trainable": true, "dtype": "float32", "target_shape": [1, 1, 1152]}, "name": "block6g_se_reshape", "inbound_nodes": [[["block6g_se_squeeze", 0, 0, {}]]]}, {"class_name": "Conv2D", "config": {"name": "block6g_se_reduce", "trainable": true, "dtype": "float32", "filters": 48, "kernel_size": [1, 1], "strides": [1, 1], "padding": "same", "data_format": "channels_last", "dilation_rate": [1, 1], "groups": 1, "activation": "swish", "use_bias": true, "kernel_initializer": {"class_name": "VarianceScaling", "config": {"scale": 2.0, "mode": "fan_out", "distribution": "truncated_normal", "seed": null}}, "bias_initializer": {"class_name": "Zeros", "config": {}}, "kernel_regularizer": null, "bias_regularizer": null, "activity_regularizer": null, "kernel_constraint": null, "bias_constraint": null}, "name": "block6g_se_reduce", "inbound_nodes": [[["block6g_se_reshape", 0, 0, {}]]]}, {"class_name": "Conv2D", "config": {"name": "block6g_se_expand", "trainable": true, "dtype": "float32", "filters": 1152, "kernel_size": [1, 1], "strides": [1, 1], "padding": "same", "data_format": "channels_last", "dilation_rate": [1, 1], "groups": 1, "activation": "sigmoid", "use_bias": true, "kernel_initializer": {"class_name": "VarianceScaling", "config": {"scale": 2.0, "mode": "fan_out", "distribution": "truncated_normal", "seed": null}}, "bias_initializer": {"class_name": "Zeros", "config": {}}, "kernel_regularizer": null, "bias_regularizer": null, "activity_regularizer": null, "kernel_constraint": null, "bias_constraint": null}, "name": "block6g_se_expand", "inbound_nodes": [[["block6g_se_reduce", 0, 0, {}]]]}, {"class_name": "Multiply", "config": {"name": "block6g_se_excite", "trainable": true, "dtype": "float32"}, "name": "block6g_se_excite", "inbound_nodes": [[["block6g_activation", 0, 0, {}], ["block6g_se_expand", 0, 0, {}]]]}, {"class_name": "Conv2D", "config": {"name": "block6g_project_conv", "trainable": true, "dtype": "float32", "filters": 192, "kernel_size": [1, 1], "strides": [1, 1], "padding": "same", "data_format": "channels_last", "dilation_rate": [1, 1], "groups": 1, "activation": "linear", "use_bias": false, "kernel_initializer": {"class_name": "VarianceScaling", "config": {"scale": 2.0, "mode": "fan_out", "distribution": "truncated_normal", "seed": null}}, "bias_initializer": {"class_name": "Zeros", "config": {}}, "kernel_regularizer": null, "bias_regularizer": null, "activity_regularizer": null, "kernel_constraint": null, "bias_constraint": null}, "name": "block6g_project_conv", "inbound_nodes": [[["block6g_se_excite", 0, 0, {}]]]}, {"class_name": "BatchNormalization", "config": {"name": "block6g_project_bn", "trainable": true, "dtype": "float32", "axis": [3], "momentum": 0.9, "epsilon": 0.001, "center": true, "scale": true, "beta_initializer": {"class_name": "Zeros", "config": {}}, "gamma_initializer": {"class_name": "Ones", "config": {}}, "moving_mean_initializer": {"class_name": "Zeros", "config": {}}, "moving_variance_initializer": {"class_name": "Ones", "config": {}}, "beta_regularizer": null, "gamma_regularizer": null, "beta_constraint": null, "gamma_constraint": null}, "name": "block6g_project_bn", "inbound_nodes": [[["block6g_project_conv", 0, 0, {}]]]}, {"class_name": "Add", "config": {"name": "block6g_add", "trainable": true, "dtype": "float32"}, "name": "block6g_add", "inbound_nodes": [[["block6g_project_bn", 0, 0, {}], ["block6f_add", 0, 0, {}]]]}, {"class_name": "Conv2D", "config": {"name": "block6h_expand_conv", "trainable": true, "dtype": "float32", "filters": 1152, "kernel_size": [1, 1], "strides": [1, 1], "padding": "same", "data_format": "channels_last", "dilation_rate": [1, 1], "groups": 1, "activation": "linear", "use_bias": false, "kernel_initializer": {"class_name": "VarianceScaling", "config": {"scale": 2.0, "mode": "fan_out", "distribution": "truncated_normal", "seed": null}}, "bias_initializer": {"class_name": "Zeros", "config": {}}, "kernel_regularizer": null, "bias_regularizer": null, "activity_regularizer": null, "kernel_constraint": null, "bias_constraint": null}, "name": "block6h_expand_conv", "inbound_nodes": [[["block6g_add", 0, 0, {}]]]}, {"class_name": "BatchNormalization", "config": {"name": "block6h_expand_bn", "trainable": true, "dtype": "float32", "axis": [3], "momentum": 0.9, "epsilon": 0.001, "center": true, "scale": true, "beta_initializer": {"class_name": "Zeros", "config": {}}, "gamma_initializer": {"class_name": "Ones", "config": {}}, "moving_mean_initializer": {"class_name": "Zeros", "config": {}}, "moving_variance_initializer": {"class_name": "Ones", "config": {}}, "beta_regularizer": null, "gamma_regularizer": null, "beta_constraint": null, "gamma_constraint": null}, "name": "block6h_expand_bn", "inbound_nodes": [[["block6h_expand_conv", 0, 0, {}]]]}, {"class_name": "Activation", "config": {"name": "block6h_expand_activation", "trainable": true, "dtype": "float32", "activation": "swish"}, "name": "block6h_expand_activation", "inbound_nodes": [[["block6h_expand_bn", 0, 0, {}]]]}, {"class_name": "DepthwiseConv2D", "config": {"name": "block6h_dwconv2", "trainable": true, "dtype": "float32", "kernel_size": [3, 3], "strides": [1, 1], "padding": "same", "data_format": "channels_last", "dilation_rate": [1, 1], "groups": 1, "activation": "linear", "use_bias": false, "bias_initializer": {"class_name": "Zeros", "config": {}}, "bias_regularizer": null, "activity_regularizer": null, "bias_constraint": null, "depth_multiplier": 1, "depthwise_initializer": {"class_name": "VarianceScaling", "config": {"scale": 2.0, "mode": "fan_out", "distribution": "truncated_normal", "seed": null}}, "depthwise_regularizer": null, "depthwise_constraint": null}, "name": "block6h_dwconv2", "inbound_nodes": [[["block6h_expand_activation", 0, 0, {}]]]}, {"class_name": "BatchNormalization", "config": {"name": "block6h_bn", "trainable": true, "dtype": "float32", "axis": [3], "momentum": 0.9, "epsilon": 0.001, "center": true, "scale": true, "beta_initializer": {"class_name": "Zeros", "config": {}}, "gamma_initializer": {"class_name": "Ones", "config": {}}, "moving_mean_initializer": {"class_name": "Zeros", "config": {}}, "moving_variance_initializer": {"class_name": "Ones", "config": {}}, "beta_regularizer": null, "gamma_regularizer": null, "beta_constraint": null, "gamma_constraint": null}, "name": "block6h_bn", "inbound_nodes": [[["block6h_dwconv2", 0, 0, {}]]]}, {"class_name": "Activation", "config": {"name": "block6h_activation", "trainable": true, "dtype": "float32", "activation": "swish"}, "name": "block6h_activation", "inbound_nodes": [[["block6h_bn", 0, 0, {}]]]}, {"class_name": "GlobalAveragePooling2D", "config": {"name": "block6h_se_squeeze", "trainable": true, "dtype": "float32", "data_format": "channels_last", "keepdims": false}, "name": "block6h_se_squeeze", "inbound_nodes": [[["block6h_activation", 0, 0, {}]]]}, {"class_name": "Reshape", "config": {"name": "block6h_se_reshape", "trainable": true, "dtype": "float32", "target_shape": [1, 1, 1152]}, "name": "block6h_se_reshape", "inbound_nodes": [[["block6h_se_squeeze", 0, 0, {}]]]}, {"class_name": "Conv2D", "config": {"name": "block6h_se_reduce", "trainable": true, "dtype": "float32", "filters": 48, "kernel_size": [1, 1], "strides": [1, 1], "padding": "same", "data_format": "channels_last", "dilation_rate": [1, 1], "groups": 1, "activation": "swish", "use_bias": true, "kernel_initializer": {"class_name": "VarianceScaling", "config": {"scale": 2.0, "mode": "fan_out", "distribution": "truncated_normal", "seed": null}}, "bias_initializer": {"class_name": "Zeros", "config": {}}, "kernel_regularizer": null, "bias_regularizer": null, "activity_regularizer": null, "kernel_constraint": null, "bias_constraint": null}, "name": "block6h_se_reduce", "inbound_nodes": [[["block6h_se_reshape", 0, 0, {}]]]}, {"class_name": "Conv2D", "config": {"name": "block6h_se_expand", "trainable": true, "dtype": "float32", "filters": 1152, "kernel_size": [1, 1], "strides": [1, 1], "padding": "same", "data_format": "channels_last", "dilation_rate": [1, 1], "groups": 1, "activation": "sigmoid", "use_bias": true, "kernel_initializer": {"class_name": "VarianceScaling", "config": {"scale": 2.0, "mode": "fan_out", "distribution": "truncated_normal", "seed": null}}, "bias_initializer": {"class_name": "Zeros", "config": {}}, "kernel_regularizer": null, "bias_regularizer": null, "activity_regularizer": null, "kernel_constraint": null, "bias_constraint": null}, "name": "block6h_se_expand", "inbound_nodes": [[["block6h_se_reduce", 0, 0, {}]]]}, {"class_name": "Multiply", "config": {"name": "block6h_se_excite", "trainable": true, "dtype": "float32"}, "name": "block6h_se_excite", "inbound_nodes": [[["block6h_activation", 0, 0, {}], ["block6h_se_expand", 0, 0, {}]]]}, {"class_name": "Conv2D", "config": {"name": "block6h_project_conv", "trainable": true, "dtype": "float32", "filters": 192, "kernel_size": [1, 1], "strides": [1, 1], "padding": "same", "data_format": "channels_last", "dilation_rate": [1, 1], "groups": 1, "activation": "linear", "use_bias": false, "kernel_initializer": {"class_name": "VarianceScaling", "config": {"scale": 2.0, "mode": "fan_out", "distribution": "truncated_normal", "seed": null}}, "bias_initializer": {"class_name": "Zeros", "config": {}}, "kernel_regularizer": null, "bias_regularizer": null, "activity_regularizer": null, "kernel_constraint": null, "bias_constraint": null}, "name": "block6h_project_conv", "inbound_nodes": [[["block6h_se_excite", 0, 0, {}]]]}, {"class_name": "BatchNormalization", "config": {"name": "block6h_project_bn", "trainable": true, "dtype": "float32", "axis": [3], "momentum": 0.9, "epsilon": 0.001, "center": true, "scale": true, "beta_initializer": {"class_name": "Zeros", "config": {}}, "gamma_initializer": {"class_name": "Ones", "config": {}}, "moving_mean_initializer": {"class_name": "Zeros", "config": {}}, "moving_variance_initializer": {"class_name": "Ones", "config": {}}, "beta_regularizer": null, "gamma_regularizer": null, "beta_constraint": null, "gamma_constraint": null}, "name": "block6h_project_bn", "inbound_nodes": [[["block6h_project_conv", 0, 0, {}]]]}, {"class_name": "Add", "config": {"name": "block6h_add", "trainable": true, "dtype": "float32"}, "name": "block6h_add", "inbound_nodes": [[["block6h_project_bn", 0, 0, {}], ["block6g_add", 0, 0, {}]]]}, {"class_name": "Conv2D", "config": {"name": "top_conv", "trainable": true, "dtype": "float32", "filters": 1280, "kernel_size": [1, 1], "strides": [1, 1], "padding": "same", "data_format": "channels_last", "dilation_rate": [1, 1], "groups": 1, "activation": "linear", "use_bias": false, "kernel_initializer": {"class_name": "VarianceScaling", "config": {"scale": 2.0, "mode": "fan_out", "distribution": "truncated_normal", "seed": null}}, "bias_initializer": {"class_name": "Zeros", "config": {}}, "kernel_regularizer": null, "bias_regularizer": null, "activity_regularizer": null, "kernel_constraint": null, "bias_constraint": null}, "name": "top_conv", "inbound_nodes": [[["block6h_add", 0, 0, {}]]]}, {"class_name": "BatchNormalization", "config": {"name": "top_bn", "trainable": true, "dtype": "float32", "axis": [3], "momentum": 0.9, "epsilon": 0.001, "center": true, "scale": true, "beta_initializer": {"class_name": "Zeros", "config": {}}, "gamma_initializer": {"class_name": "Ones", "config": {}}, "moving_mean_initializer": {"class_name": "Zeros", "config": {}}, "moving_variance_initializer": {"class_name": "Ones", "config": {}}, "beta_regularizer": null, "gamma_regularizer": null, "beta_constraint": null, "gamma_constraint": null}, "name": "top_bn", "inbound_nodes": [[["top_conv", 0, 0, {}]]]}, {"class_name": "Activation", "config": {"name": "top_activation", "trainable": true, "dtype": "float32", "activation": "swish"}, "name": "top_activation", "inbound_nodes": [[["top_bn", 0, 0, {}]]]}, {"class_name": "GlobalMaxPooling2D", "config": {"name": "max_pool", "trainable": true, "dtype": "float32", "data_format": "channels_last", "keepdims": false}, "name": "max_pool", "inbound_nodes": [[["top_activation", 0, 0, {}]]]}], "input_layers": [["input_5", 0, 0]], "output_layers": [["max_pool", 0, 0]]}}, {"class_name": "Dense", "config": {"name": "dense_2", "trainable": true, "dtype": "float32", "units": 1, "activation": "sigmoid", "use_bias": true, "kernel_initializer": {"class_name": "GlorotUniform", "config": {"seed": null}}, "bias_initializer": {"class_name": "Zeros", "config": {}}, "kernel_regularizer": null, "bias_regularizer": null, "activity_regularizer": null, "kernel_constraint": null, "bias_constraint": null}}]}, "keras_version": "2.8.0", "backend": "tensorflow"}